v3-0-0-grove-vision-ai-v2-and-xiao-esp32s3/ei-ei-v39-rgb-fomo-eyes-320-320-grove-v2.tflite (tflite, 56552 bytes, 21 tensors)

model_1/logits/Conv2D i1 [2, 1, 1, 32]
000000 59 cc c6 62 dc f8 02 63 7f fa cd d8 df 42 e3 11
       89 -52 -58 98 -36 -8 2 99 127 -6 -51 -40 -33 66 -29 17
000010 64 a0 d6 9d 62 3f 41 c8 aa 94 f6 4c 09 bc 31 3c
       100 -96 -42 -99 98 63 65 -56 -86 -108 -10 76 9 -68 49 60
000020 37 4e 4b bf af 4e e2 0b d9 ec 27 6a 76 2c 2e 02
       55 78 75 -65 -81 78 -30 11 -39 -20 39 106 118 44 46 2
000030 d6 0b c2 a4 af 26 25 72 59 51 c9 fa 6b 93 81 f0
       -42 11 -62 -92 -81 38 37 114 89 81 -55 -6 107 -109 -127 -16

model_1/head/Conv2D i1 [32, 1, 1, 96]
000000 d7 cc 63 08 65 f5 a0 93 3a 98 8e f3 3b 07 d2 33
       -41 -52 99 8 101 -11 -96 -109 58 -104 -114 -13 59 7 -46 51
000010 c1 dd b2 c5 b4 92 02 64 8c 00 47 c8 64 02 e8 a4
       -63 -35 -78 -59 -76 -110 2 100 -116 0 71 -56 100 2 -24 -92
000020 56 c6 99 3f 8c a7 9f 16 43 a4 94 60 29 8d 65 e4
       86 -58 -103 63 -116 -89 -97 22 67 -92 -108 96 41 -115 101 -28
000030 10 be e1 59 b5 d8 98 61 1d 47 71 90 b3 4b cd 33
       16 -66 -31 89 -75 -40 -104 97 29 71 113 -112 -77 75 -51 51
000040 fe 06 41 58 36 58 58 85 64 91 2d 51 93 0c bd 25
       -2 6 65 88 54 88 88 -123 100 -111 45 81 -109 12 -67 37
000050 2b 15 57 f7 bc cf a8 5c 15 6d ec 81 0a 3e 14 0f
       43 21 87 -9 -68 -49 -88 92 21 109 -20 -127 10 62 20 15
000060 ca 24 bd 00 e5 54 20 0e 51 a6 9b 63 4f e8 12 45
       -54 36 -67 0 -27 84 32 14 81 -90 -101 99 79 -24 18 69
000070 6b db 29 7f d4 fb 27 1a 2a 17 d5 6b 0d 11 65 c8
       107 -37 41 127 -44 -5 39 26 42 23 -43 107 13 17 101 -56
000080 45 6a f8 21 38 36 fc bc bf 09 eb a6 db 29 dd c9
       69 106 -8 33 56 54 -4 -68 -65 9 -21 -90 -37 41 -35 -55
000090 ee b7 76 42 13 58 b3 ce 23 68 32 55 ce 73 c5 c8
       -18 -73 118 66 19 88 -77 -50 35 104 50 85 -50 115 -59 -56
0000a0 d1 24 49 26 78 1f 1a 0f 96 62 d5 32 58 d8 d6 4b
       -47 36 73 38 120 31 26 15 -106 98 -43 50 88 -40 -42 75
0000b0 b0 57 ce 99 1c 6d c1 c4 4d 4a 5f 1f 56 57 1d 09
       -80 87 -50 -103 28 109 -63 -60 77 74 95 31 86 87 29 9
0000c0 30 2a c1 64 f6 c7 56 68 9b 63 db 74 6f f2 4e 91
       48 42 -63 100 -10 -57 86 104 -101 99 -37 116 111 -14 78 -111
0000d0 c5 e6 29 46 9e f0 77 14 ee 58 67 0c ba 61 58 69
       -59 -26 41 70 -98 -16 119 20 -18 88 103 12 -70 97 88 105
0000e0 c3 f0 9f 96 ac 5c 77 dc 81 b4 0e fe a4 7f e0 ad
       -61 -16 -97 -106 -84 92 119 -36 -127 -76 14 -2 -92 127 -32 -83
0000f0 6b 32 66 ae d9 49 15 11 c2 6b b3 0a f5 3f e1 5e
       107 50 102 -82 -39 73 21 17 -62 107 -77 10 -11 63 -31 94

model_1/block_6_expand/Conv2D i1 [96, 1, 1, 16]
000000 df 59 fc 81 c4 e3 da c5 eb 0f 03 4d 16 cd 05 3e
       -33 89 -4 -127 -60 -29 -38 -59 -21 15 3 77 22 -51 5 62
000010 e4 18 cb fa e4 f3 11 af 40 30 cc 14 04 06 34 81
       -28 24 -53 -6 -28 -13 17 -81 64 48 -52 20 4 6 52 -127
000020 0f 0f e2 1b 3c 1f b3 b5 7f cf fd 1f fc 72 c3 18
       15 15 -30 27 60 31 -77 -75 127 -49 -3 31 -4 114 -61 24
000030 29 cc fd a8 f5 e3 02 09 72 09 4f 17 ef 21 0b 7f
       41 -52 -3 -88 -11 -29 2 9 114 9 79 23 -17 33 11 127
000040 ae 2e 0d 3a 04 ed 07 2a 0a 0f 0f db 81 f3 f4 1d
       -82 46 13 58 4 -19 7 42 10 15 15 -37 -127 -13 -12 29
000050 11 44 64 fb 14 3a b6 40 c6 47 e8 ea 26 de 81 25
       17 68 100 -5 20 58 -74 64 -58 71 -24 -22 38 -34 -127 37
000060 14 c6 7f 90 28 02 db 76 bf 9d 3a cd fb 5c ea 5e
       20 -58 127 -112 40 2 -37 118 -65 -99 58 -51 -5 92 -22 94
000070 1e 70 e1 d4 55 09 0a cd 7f 63 db 02 13 e6 34 2a
       30 112 -31 -44 85 9 10 -51 127 99 -37 2 19 -26 52 42
000080 0e b4 0c ad 0f cf 0d be 13 38 48 f4 12 7f 48 3d
       14 -76 12 -83 15 -49 13 -66 19 56 72 -12 18 127 72 61
000090 0d e1 00 7f 2a fc 23 c0 bf 67 20 ef 00 c5 f8 f8
       13 -31 0 127 42 -4 35 -64 -65 103 32 -17 0 -59 -8 -8
0000a0 e8 11 cd 81 ff f3 f9 2b 21 df 1e f0 e9 d5 fa 20
       -24 17 -51 -127 -1 -13 -7 43 33 -33 30 -16 -23 -43 -6 32
0000b0 fd 11 17 f6 54 de 5d c9 b2 2a f9 13 f8 7f b2 d9
       -3 17 23 -10 84 -34 93 -55 -78 42 -7 19 -8 127 -78 -39
0000c0 30 0b 81 00 25 af 34 06 13 45 c2 bc d5 5d f3 2c
       48 11 -127 0 37 -81 52 6 19 69 -62 -68 -43 93 -13 44
0000d0 ed 08 e1 10 fe 81 00 13 0b f6 0b fc 08 ee 0a 0a
       -19 8 -31 16 -2 -127 0 19 11 -10 11 -4 8 -18 10 10
0000e0 0d e5 63 f0 3c 06 81 a2 f7 da 1c 06 ff bb e9 d7
       13 -27 99 -16 60 6 -127 -94 -9 -38 28 6 -1 -69 -23 -41
0000f0 a1 0e e0 c9 15 fc 7f 32 d9 25 3b f4 0e 4d 52 06
       -95 14 -32 -55 21 -4 127 50 -39 37 59 -12 14 77 82 6

model_1/block_5_project/Conv2D i1 [16, 1, 1, 96]
000000 f1 f4 05 e0 04 fa d7 05 0c 05 fa 05 fb f9 e7 f5
       -15 -12 5 -32 4 -6 -41 5 12 5 -6 5 -5 -7 -25 -11
000010 fa 00 00 06 ff e7 fb 02 03 05 09 7f 16 e4 2b fa
       -6 0 0 6 -1 -25 -5 2 3 5 9 127 22 -28 43 -6
000020 fd 0d 01 02 fb 10 db 01 fe 0b 08 17 0b 10 09 03
       -3 13 1 2 -5 16 -37 1 -2 11 8 23 11 16 9 3
000030 19 00 f7 03 0b ec f2 43 0c 06 dc e9 f7 14 00 e9
       25 0 -9 3 11 -20 -14 67 12 6 -36 -23 -9 20 0 -23
000040 d0 c3 e7 1f 01 08 0a ef fd e3 f3 e6 de 10 07 04
       -48 -61 -25 31 1 8 10 -17 -3 -29 -13 -26 -34 16 7 4
000050 f3 dd 13 0c fc ef fe a7 fd f4 0d 03 22 e3 e6 eb
       -13 -35 19 12 -4 -17 -2 -89 -3 -12 13 3 34 -29 -26 -21
000060 30 b3 b5 c9 7f f8 4d 17 f0 9b b9 eb ff f3 c9 38
       48 -77 -75 -55 127 -8 77 23 -16 -101 -71 -21 -1 -13 -55 56
000070 b8 0f 27 33 26 2b fa d3 08 f0 f9 b4 24 e2 be 1c
       -72 15 39 51 38 43 -6 -45 8 -16 -7 -76 36 -30 -66 28
000080 f1 24 08 03 10 f1 04 17 dd 28 cd e9 d3 42 0b 0a
       -15 36 8 3 16 -15 4 23 -35 40 -51 -23 -45 66 11 10
000090 0f a2 08 e8 e9 37 34 12 c6 f2 e7 e2 1b 02 fb d1
       15 -94 8 -24 -23 55 52 18 -58 -14 -25 -30 27 2 -5 -47
0000a0 b6 70 e1 fb 0a f4 f5 11 30 8e df 00 14 d0 34 0a
       -74 112 -31 -5 10 -12 -11 17 48 -114 -33 0 20 -48 52 10
0000b0 0b e6 17 08 c2 2e e5 19 13 ce f6 14 20 f4 1f 6d
       11 -26 23 8 -62 46 -27 25 19 -50 -10 20 32 -12 31 109
0000c0 fb 50 92 15 50 65 17 4f 08 81 16 f9 fc 0c 1a 38
       -5 80 -110 21 80 101 23 79 8 -127 22 -7 -4 12 26 56
0000d0 10 fd e3 29 07 06 4e 19 2b 28 fd c7 1d eb 32 cf
       16 -3 -29 41 7 6 78 25 43 40 -3 -57 29 -21 50 -49
0000e0 22 07 e3 23 87 c5 2b 1e 1a d1 14 e3 1d 05 0b 43
       34 7 -29 35 -121 -59 43 30 26 -47 20 -29 29 5 11 67
0000f0 e3 2a ed f9 54 ec f2 29 44 05 1a f0 0b 0a 23 eb
       -29 42 -19 -7 84 -20 -14 41 68 5 26 -16 11 10 35 -21

model_1/block_5_depthwise_BN/FusedBatchNormV3;model_1/block_5_depthwise/depthwise;model_1/block_6_expand/Conv2D i1 [1, 3, 3, 96]
000000 d1 b8 f7 7f 16 4c 48 c8 f0 ef f1 fb e1 00 26 05
       -47 -72 -9 127 22 76 72 -56 -16 -17 -15 -5 -31 0 38 5
000010 f6 d5 1a 13 15 81 7f 06 af 07 31 e2 81 81 26 17
       -10 -43 26 19 21 -127 127 6 -81 7 49 -30 -127 -127 38 23
000020 0c 1d 3b ef e1 f5 1d f8 f2 1b 92 47 1a bc 25 2f
       12 29 59 -17 -31 -11 29 -8 -14 27 -110 71 26 -68 37 47
000030 ee 33 e8 13 03 f9 10 31 a3 ce c4 ef f6 01 0c 26
       -18 51 -24 19 3 -7 16 49 -93 -50 -60 -17 -10 1 12 38
000040 45 e6 4b 0f f7 10 14 7f 17 16 1a ff f5 12 7f f9
       69 -26 75 15 -9 16 20 127 23 22 26 -1 -11 18 127 -7
000050 f1 0e e6 14 7c 16 b7 f2 ff e1 f1 db 01 e7 f1 1a
       -15 14 -26 20 124 22 -73 -14 -1 -31 -15 -37 1 -25 -15 26
000060 7f 81 4e 6a d6 7f 25 8c 43 05 ef 7f 7f 9e f4 12
       127 -127 78 106 -42 127 37 -116 67 5 -17 127 127 -98 -12 18
000070 09 7f 7f 8e 7f b2 4f 43 81 8b bd dd c9 2d c4 ea
       9 127 127 -114 127 -78 79 67 -127 -117 -67 -35 -55 45 -60 -22
000080 aa 38 81 ac d6 f1 ca 3c ff 7f 7f 50 ce 8e 92 ce
       -86 56 -127 -84 -42 -15 -54 60 -1 127 127 80 -50 -114 -110 -50
000090 f1 81 2a 54 42 df 2f 54 d0 2a b2 90 d4 d8 c4 43
       -15 -127 42 84 66 -33 47 84 -48 42 -78 -112 -44 -40 -60 67
0000a0 4a c1 1b 21 af 20 ef 5c 75 7f 0e 14 01 3d e0 32
       74 -63 27 33 -81 32 -17 92 117 127 14 20 1 61 -32 50
0000b0 40 7f 7f e9 f9 4b 94 7f 87 9f 04 81 a7 81 da 6a
       64 127 127 -23 -7 75 -108 127 -121 -97 4 -127 -89 -127 -38 106
0000c0 b4 f3 1f ac 0f ed 3e f9 50 dd e5 13 ed fb f8 f7
       -76 -13 31 -84 15 -19 62 -7 80 -35 -27 19 -19 -5 -8 -9
0000d0 f6 f0 07 fb ed 98 1f ff 84 62 07 c8 71 31 f1 09
       -10 -16 7 -5 -19 -104 31 -1 -124 98 7 -56 113 49 -15 9
0000e0 ff 0f 0d e4 f6 21 12 0b 18 0b 88 3e 12 ed 24 0e
       -1 15 13 -28 -10 33 18 11 24 11 -120 62 18 -19 36 14
0000f0 f2 0a ef 05 f6 00 00 16 bb 06 df 36 01 29 22 ff
       -14 10 -17 5 -10 0 0 22 -69 6 -33 54 1 41 34 -1

model_1/block_5_expand/Conv2D i1 [96, 1, 1, 16]
000000 1a 5e f9 40 1b 2f 02 06 10 1e d7 66 07 81 16 9f
       26 94 -7 64 27 47 2 6 16 30 -41 102 7 -127 22 -97
000010 0a 23 f3 e9 27 e3 7f a6 0b 57 fd e7 ed df 26 16
       10 35 -13 -23 39 -29 127 -90 11 87 -3 -25 -19 -33 38 22
000020 81 18 de d3 28 01 57 52 f5 4f 7a d7 aa 23 46 c6
       -127 24 -34 -45 40 1 87 82 -11 79 122 -41 -86 35 70 -58
000030 b7 69 42 46 ac 40 47 7f f8 4a 85 f2 2a 95 83 aa
       -73 105 66 70 -84 64 71 127 -8 74 -123 -14 42 -107 -125 -86
000040 0b fe 20 3b f1 36 f2 1a 0a ee 00 0b 0e 02 81 e5
       11 -2 32 59 -15 54 -14 26 10 -18 0 11 14 2 -127 -27
000050 0d d9 4e e6 10 d3 e4 10 b3 52 c6 81 ff 04 b9 e4
       13 -39 78 -26 16 -45 -28 16 -77 82 -58 -127 -1 4 -71 -28
000060 1a f0 29 f0 26 2a c1 c2 ff eb 20 e9 7f ea 01 da
       26 -16 41 -16 38 42 -63 -62 -1 -21 32 -23 127 -22 1 -38
000070 19 02 7f e9 f0 d2 07 fc b3 10 b8 c6 0e f3 3d f5
       25 2 127 -23 -16 -46 7 -4 -77 16 -72 -58 14 -13 61 -11
000080 38 08 6d 42 c0 62 26 58 3b 04 28 81 cb 1d 90 b7
       56 8 109 66 -64 98 38 88 59 4 40 -127 -53 29 -112 -73
000090 14 a1 31 48 fc c5 1a 2f 7f 09 2b e4 d3 fd b5 d8
       20 -95 49 72 -4 -59 26 47 127 9 43 -28 -45 -3 -75 -40
0000a0 cd 94 0a ee a3 2b e0 36 55 7f 1c ea f5 3f 45 f9
       -51 -108 10 -18 -93 43 -32 54 85 127 28 -22 -11 63 69 -7
0000b0 31 03 e9 88 ea fa 86 81 bd 31 1a f8 24 ee 28 ce
       49 3 -23 -120 -22 -6 -122 -127 -67 49 26 -8 36 -18 40 -50
0000c0 ff 02 01 d8 d1 e5 a6 ef d3 c6 fa 0c 12 7f 51 2c
       -1 2 1 -40 -47 -27 -90 -17 -45 -58 -6 12 18 127 81 44
0000d0 e8 98 cb 19 f6 d0 f2 ef 24 fa e7 ec 1e 13 7f 24
       -24 -104 -53 25 -10 -48 -14 -17 36 -6 -25 -20 30 19 127 36
0000e0 fa c6 22 14 1e 1b 11 7f 10 38 0e e3 09 12 b4 62
       -6 -58 34 20 30 27 17 127 16 56 14 -29 9 18 -76 98
0000f0 18 e0 04 37 06 f6 56 f2 0c 81 04 e2 03 ea 00 d3
       24 -32 4 55 6 -10 86 -14 12 -127 4 -30 3 -22 0 -45

model_1/block_4_project/Conv2D i1 [16, 1, 1, 96]
000000 fe 0b fa 06 3a 47 d3 de 2a 09 1b 10 f6 10 22 42
       -2 11 -6 6 58 71 -45 -34 42 9 27 16 -10 16 34 66
000010 09 fa fa f7 59 c3 04 04 ec e5 db a3 ff 04 2f 2f
       9 -6 -6 -9 89 -61 4 4 -20 -27 -37 -93 -1 4 47 47
000020 64 f4 13 fc fc fb e8 08 ed 11 0c e2 0b ea ef 17
       100 -12 19 -4 -4 -5 -24 8 -19 17 12 -30 11 -22 -17 23
000030 ff 11 f6 fe e0 f3 fd f7 2a 23 d4 e5 c3 22 f0 f0
       -1 17 -10 -2 -32 -13 -3 -9 42 35 -44 -27 -61 34 -16 -16
000040 12 0b 2e 04 0c 06 0c e7 d0 01 07 fe f7 a3 0a ee
       18 11 46 4 12 6 12 -25 -48 1 7 -2 -9 -93 10 -18
000050 29 ec c4 ce 1b f3 0d 1f 02 02 14 e7 1d 19 f1 7f
       41 -20 -60 -50 27 -13 13 31 2 2 20 -25 29 25 -15 127
000060 41 af 1e 58 f1 c1 06 d1 fb ae f0 1a 09 cd da b5
       65 -81 30 88 -15 -63 6 -47 -5 -82 -16 26 9 -51 -38 -75
000070 af fe 0f 0e da 9d dc ff 7f bc af 15 d8 3c ef 20
       -81 -2 15 14 -38 -99 -36 -1 127 -68 -81 21 -40 60 -17 32
000080 19 ff cb 14 fe e0 3e eb f7 a3 48 ea d2 04 34 fe
       25 -1 -53 20 -2 -32 62 -21 -9 -93 72 -22 -46 4 52 -2
000090 09 0c 02 c1 43 b9 36 e7 13 18 e5 a0 1e cd 0f dc
       9 12 2 -63 67 -71 54 -25 19 24 -27 -96 30 -51 15 -36
0000a0 f9 bb 2a 2c 1a 34 e3 fa 9c 1d e8 3d 32 67 25 e8
       -7 -69 42 44 26 52 -29 -6 -100 29 -24 61 50 103 37 -24
0000b0 35 0c b7 2b ab 44 f8 2d c5 fb 0a fe 10 e5 1d 05
       53 12 -73 43 -85 68 -8 45 -59 -5 10 -2 16 -27 29 5
0000c0 0f 0e 0a e6 14 fd e6 24 2d f1 0d 3a 00 fb 31 0b
       15 14 10 -26 20 -3 -26 36 45 -15 13 58 0 -5 49 11
0000d0 f6 ec 08 04 f2 c2 0c e0 00 f8 ec 19 fd 16 6d d2
       -10 -20 8 4 -14 -62 12 -32 0 -8 -20 25 -3 22 109 -46
0000e0 01 d5 fe 2f 05 7f d6 eb 06 00 fc 1b dd dd d3 13
       1 -43 -2 47 5 127 -42 -21 6 0 -4 27 -35 -35 -45 19
0000f0 20 21 e3 e8 22 0c f8 ed ea 0c fc 20 01 0b 3f 47
       32 33 -29 -24 34 12 -8 -19 -22 12 -4 32 1 11 63 71

model_1/block_4_depthwise_BN/FusedBatchNormV3;model_1/block_4_depthwise/depthwise;model_1/block_6_expand/Conv2D i1 [1, 3, 3, 96]
000000 ef 06 ec 6d f0 18 c1 c9 11 fc 65 f6 05 f9 fb 3e
       -17 6 -20 109 -16 24 -63 -55 17 -4 101 -10 5 -7 -5 62
000010 05 10 e1 04 4d 01 20 df 02 11 29 30 14 0c 17 30
       5 16 -31 4 77 1 32 -33 2 17 41 48 20 12 23 48
000020 fa 1c 0a f1 07 33 c1 e6 14 09 1c 11 ab c8 19 fa
       -6 28 10 -15 7 51 -63 -26 20 9 28 17 -85 -56 25 -6
000030 f5 ea f8 fa 32 03 f7 02 ff dd 1b e5 19 fe 7f 1c
       -11 -22 -8 -6 50 3 -9 2 -1 -35 27 -27 25 -2 127 28
000040 f4 f5 0c cb 43 23 01 f9 4d de 4a 04 11 82 1e 43
       -12 -11 12 -53 67 35 1 -7 77 -34 74 4 17 -126 30 67
000050 01 0f 7f f4 25 1c e4 ed 21 f8 f2 52 02 15 fe 0a
       1 15 127 -12 37 28 -28 -19 33 -8 -14 82 2 21 -2 10
000060 d0 0c f8 0b 33 f8 f4 81 28 0f 81 fb f0 f5 04 62
       -48 12 -8 11 51 -8 -12 -127 40 15 -127 -5 -16 -11 4 98
000070 13 e1 f5 f0 4d 9e 7f 1a c3 e1 96 f0 1b 24 ce 13
       19 -31 -11 -16 77 -98 127 26 -61 -31 -106 -16 27 36 -50 19
000080 79 0d f3 ff ea 7f c3 81 09 ed e2 0e 2f 81 7f d3
       121 13 -13 -1 -22 127 -61 -127 9 -19 -30 14 47 -127 127 -45
000090 b3 32 32 07 27 be 20 39 28 2c 9d 55 7f 23 03 ed
       -77 50 50 7 39 -66 32 57 40 44 -99 85 127 35 3 -19
0000a0 2b da a0 fd 25 e1 ec 2f cc cf 6c fc e2 c5 df 42
       43 -38 -96 -3 37 -31 -20 47 -52 -49 108 -4 -30 -59 -33 66
0000b0 be 3e f2 08 f4 2f 37 d8 e4 35 f4 48 81 e2 18 81
       -66 62 -14 8 -12 47 55 -40 -28 53 -12 72 -127 -30 24 -127
0000c0 00 fc e9 b4 08 13 26 15 fe 00 02 3e 01 f3 f5 08
       0 -4 -23 -76 8 19 38 21 -2 0 2 62 1 -13 -11 8
0000d0 f4 10 f4 10 06 18 18 e0 00 e1 09 0b fa 05 2e b2
       -12 16 -12 16 6 24 24 -32 0 -31 9 11 -6 5 46 -78
0000e0 2e 11 0b e9 0e 06 e1 eb 07 03 f1 08 17 e0 15 00
       46 17 11 -23 14 6 -31 -21 7 3 -15 8 23 -32 21 0
0000f0 07 fa 05 fb 05 04 fa 08 f8 2e 07 ff 0a ee 02 f0
       7 -6 5 -5 5 4 -6 8 -8 46 7 -1 10 -18 2 -16

model_1/block_4_expand/Conv2D i1 [96, 1, 1, 16]
000000 15 f0 7f 63 4f e0 15 d7 68 eb c4 b1 1b 4f d8 9a
       21 -16 127 99 79 -32 21 -41 104 -21 -60 -79 27 79 -40 -102
000010 29 4f f4 e0 57 fb 0f 22 2f 4d d6 7f f7 e2 67 90
       41 79 -12 -32 87 -5 15 34 47 77 -42 127 -9 -30 103 -112
000020 26 e2 ed e6 c8 26 d0 4d a4 a6 19 5b 01 81 39 bc
       38 -30 -19 -26 -56 38 -48 77 -92 -90 25 91 1 -127 57 -68
000030 6f 5f e2 19 81 eb d8 f5 02 0a 6b b3 ba 56 d9 e1
       111 95 -30 25 -127 -21 -40 -11 2 10 107 -77 -70 86 -39 -31
000040 ff f1 14 0d da 14 e7 27 c7 d2 e9 00 0e 81 1e 0d
       -1 -15 20 13 -38 20 -25 39 -57 -46 -23 0 14 -127 30 13
000050 7f de ef f6 05 a3 e3 03 f1 02 90 07 1d f6 f5 23
       127 -34 -17 -10 5 -93 -29 3 -15 2 -112 7 29 -10 -11 35
000060 9d cc fe 54 d6 e2 de 09 81 b9 b3 f9 05 1d 02 54
       -99 -52 -2 84 -42 -30 -34 9 -127 -71 -77 -7 5 29 2 84
000070 e8 0a c1 39 28 81 e8 32 0b da fb 07 0a 11 d5 12
       -24 10 -63 57 40 -127 -24 50 11 -38 -5 7 10 17 -43 18
000080 1d ca fa ed 1d 21 bf c1 e9 06 be 08 81 04 f9 19
       29 -54 -6 -19 29 33 -65 -63 -23 6 -66 8 -127 4 -7 25
000090 2f a9 47 7f ee 0b 0c b8 7d 95 21 d8 f7 44 a4 29
       47 -87 71 127 -18 11 12 -72 125 -107 33 -40 -9 68 -92 41
0000a0 81 87 f5 00 74 1b 23 5c 6b c8 b1 19 77 bc bb 3f
       -127 -121 -11 0 116 27 35 92 107 -56 -79 25 119 -68 -69 63
0000b0 33 fc 81 1e 23 0e f7 25 fe e1 f2 f3 fb 12 e2 08
       51 -4 -127 30 35 14 -9 37 -2 -31 -14 -13 -5 18 -30 8
0000c0 5d be 09 0b ee b1 c1 ef 3e 09 81 e0 bd 05 0e 30
       93 -66 9 11 -18 -79 -63 -17 62 9 -127 -32 -67 5 14 48
0000d0 24 9e 0c d7 5b 0e a7 81 4e cb 23 f3 1b 02 35 14
       36 -98 12 -41 91 14 -89 -127 78 -53 35 -13 27 2 53 20
0000e0 c4 1f a3 d4 55 81 3e bf 38 34 f3 99 06 70 f9 0d
       -60 31 -93 -44 85 -127 62 -65 56 52 -13 -103 6 112 -7 13
0000f0 11 f9 58 43 25 bf de 0a 15 b3 a3 fd 81 c5 0a 48
       17 -7 88 67 37 -65 -34 10 21 -77 -93 -3 -127 -59 10 72

model_1/block_3_project/Conv2D i1 [16, 1, 1, 48]
000000 e3 00 ed 0c 17 06 01 76 ce 0d 2c fd 0c f0 f9 14
       -29 0 -19 12 23 6 1 118 -50 13 44 -3 12 -16 -7 20
000010 0b e6 f7 f9 43 fa 11 7f f2 56 ff f3 19 f4 16 f1
       11 -26 -9 -7 67 -6 17 127 -14 86 -1 -13 25 -12 22 -15
000020 f0 36 19 ca 0b 2c 13 f4 92 e7 17 32 20 1d 83 ca
       -16 54 25 -54 11 44 19 -12 -110 -25 23 50 32 29 -125 -54
000030 de f3 13 0d dd 02 02 37 c9 e2 fd d0 ef ea fe fa
       -34 -13 19 13 -35 2 2 55 -55 -30 -3 -48 -17 -22 -2 -6
000040 eb 7b f7 10 05 06 e6 f4 1b d4 0d 15 e5 a4 dc 10
       -21 123 -9 16 5 6 -26 -12 27 -44 13 21 -27 -92 -36 16
000050 ed f8 20 ff 02 da ff 11 ee e2 7f 0f 0d fd 15 f8
       -19 -8 32 -1 2 -38 -1 17 -18 -30 127 15 13 -3 21 -8
000060 e7 f6 f4 dc 03 c0 05 ee fd 08 11 1b 0f 12 f6 09
       -25 -10 -12 -36 3 -64 5 -18 -3 8 17 27 15 18 -10 9
000070 f9 ea e9 f3 fe 01 03 81 f6 4d f4 06 00 ef fd fd
       -7 -22 -23 -13 -2 1 3 -127 -10 77 -12 6 0 -17 -3 -3
000080 f9 39 0a fc 13 09 1d 00 d8 01 ed f7 fc fa 0e 07
       -7 57 10 -4 19 9 29 0 -40 1 -19 -9 -4 -6 14 7
000090 f9 1e fd de fc fc 02 fb eb fd 08 26 81 0d fc ff
       -7 30 -3 -34 -4 -4 2 -5 -21 -3 8 38 -127 13 -4 -1
0000a0 00 08 ee fd e1 09 03 0d fb f8 07 1b f6 14 01 0f
       0 8 -18 -3 -31 9 3 13 -5 -8 7 27 -10 20 1 15
0000b0 ff 05 0f 10 f2 1d 29 06 07 02 16 e0 09 fb 05 18
       -1 5 15 16 -14 29 41 6 7 2 22 -32 9 -5 5 24
0000c0 22 e5 0c 0b 0e 17 13 e8 e4 00 f6 ee fc 0e 04 11
       34 -27 12 11 14 23 19 -24 -28 0 -10 -18 -4 14 4 17
0000d0 0f f0 b5 04 f8 0c 0e 47 02 e6 08 2a 05 ba 0a 04
       15 -16 -75 4 -8 12 14 71 2 -26 8 42 5 -70 10 4
0000e0 06 e2 23 81 0c 21 ff 16 ee 0e 0b e7 f1 ea 0b 03
       6 -30 35 -127 12 33 -1 22 -18 14 11 -25 -15 -22 11 3
0000f0 1a fe ea 39 06 fc 09 1c fd fd 26 06 05 2c 00 fc
       26 -2 -22 57 6 -4 9 28 -3 -3 38 6 5 44 0 -4

model_1/block_3_depthwise_BN/FusedBatchNormV3;model_1/block_3_depthwise/depthwise i1 [1, 3, 3, 48]
000000 45 a3 62 45 34 de 6a bf 3b a8 b1 31 35 d7 b8 a7
       69 -93 98 69 52 -34 106 -65 59 -88 -79 49 53 -41 -72 -89
000010 66 4d 31 4e 44 b5 ac 33 df d7 c0 bf bd 3e c2 8e
       102 77 49 78 68 -75 -84 51 -33 -41 -64 -65 -67 62 -62 -114
000020 f3 2a 47 40 bf 35 ce ea 33 b8 3b 3f a0 0b 4b df
       -13 42 71 64 -65 53 -50 -22 51 -72 59 63 -96 11 75 -33
000030 52 a0 7f 55 b2 bc c8 ab 60 9b c0 4b 4f 94 a1 5d
       82 -96 127 85 -78 -68 -56 -85 96 -101 -64 75 79 -108 -95 93
000040 db 5e 53 7f 55 8c 34 49 ca b2 ba af 37 4f e4 81
       -37 94 83 127 85 -116 52 73 -54 -78 -70 -81 55 79 -28 -127
000050 a9 50 52 53 ae 53 ac f2 4c a3 54 59 b4 81 5d 9b
       -87 80 82 83 -82 83 -84 -14 76 -93 84 89 -76 -127 93 -101
000060 22 d1 47 26 12 d6 d0 d9 2a e1 05 23 1e b0 c9 ff
       34 -47 71 38 18 -42 -48 -39 42 -31 5 35 30 -80 -55 -1
000070 cb 26 23 45 21 c9 1f 1a e3 d1 d4 ea 1e 20 58 a6
       -53 38 35 69 33 -55 31 26 -29 -47 -44 -22 30 32 88 -90
000080 aa 2d 25 23 e2 28 db f6 29 d9 24 2c fa f8 25 b6
       -86 45 37 35 -30 40 -37 -10 41 -39 36 44 -6 -8 37 -74
000090 5d 91 d8 5c 37 ae 7f a8 56 90 b6 51 54 93 f3 81
       93 -111 -40 92 55 -82 127 -88 86 -112 -74 81 84 -109 -13 -127
0000a0 7f 6b 4a d9 54 6c 81 48 49 b3 a2 9d 81 56 bc f8
       127 107 74 -39 84 108 -127 72 73 -77 -94 -99 -127 86 -68 -8
0000b0 a7 48 6b 5f ab 4e b0 58 54 9b 57 5b a7 6c 5d a5
       -89 72 107 95 -85 78 -80 88 84 -101 87 91 -89 108 93 -91
0000c0 7f 81 bf 7f 81 81 a6 81 7f 81 81 7f 7f 81 eb 63
       127 -127 -65 127 -127 -127 -90 -127 127 -127 -127 127 127 -127 -21 99
0000d0 c0 7f 7f cd 7f 7f 44 7f 7f 81 81 81 34 7f e5 10
       -64 127 127 -51 127 127 68 127 127 -127 -127 -127 52 127 -27 16
0000e0 81 7f 7f 7f 81 7f 81 7f 7f 81 7f 7f 81 f5 7f 81
       -127 127 127 127 -127 127 -127 127 127 -127 127 127 -127 -11 127 -127
0000f0 3f b1 df 42 24 c1 ce c0 39 d7 c4 3a 31 cb f1 0c
       63 -79 -33 66 36 -63 -50 -64 57 -41 -60 58 49 -53 -15 12

model_1/block_3_expand/Conv2D i1 [48, 1, 1, 8]
000000 81 02 fe 4a d5 28 1b de 1a 43 25 1a 18 dc 6f 7f
       -127 2 -2 74 -43 40 27 -34 26 67 37 26 24 -36 111 127
000010 d6 f8 05 00 81 f5 05 08 5c fd f0 81 88 0e 28 ef
       -42 -8 5 0 -127 -11 5 8 92 -3 -16 -127 -120 14 40 -17
000020 81 38 f2 f1 4b e6 3d 15 92 e9 1b fb 81 05 0d 5a
       -127 56 -14 -15 75 -26 61 21 -110 -23 27 -5 -127 5 13 90
000030 df 81 1f e9 15 f5 fc 29 bd f7 02 6a 7f e1 d8 0d
       -33 -127 31 -23 21 -11 -4 41 -67 -9 2 106 127 -31 -40 13
000040 48 04 f9 81 04 e7 da df f1 81 f6 fe 13 4b d9 5b
       72 4 -7 -127 4 -25 -38 -33 -15 -127 -10 -2 19 75 -39 91
000050 9a f4 03 15 81 3f 46 e8 68 16 27 07 cf d1 d9 81
       -102 -12 3 21 -127 63 70 -24 104 22 39 7 -49 -47 -39 -127
000060 06 05 20 fd 07 c5 7f 3b 34 e1 fd ec 7a 75 7f df
       6 5 32 -3 7 -59 127 59 52 -31 -3 -20 122 117 127 -33
000070 7f 5d f0 16 83 d8 e8 f3 e4 81 19 ed 0c 01 05 22
       127 93 -16 22 -125 -40 -24 -13 -28 -127 25 -19 12 1 5 34
000080 c6 f1 f9 f6 81 03 03 06 df 69 81 08 0e 81 7d a5
       -58 -15 -7 -10 -127 3 3 6 -33 105 -127 8 14 -127 125 -91
000090 7f e4 c8 10 be 1f 0b 68 7f b4 df fa 37 09 1b 1d
       127 -28 -56 16 -66 31 11 104 127 -76 -33 -6 55 9 27 29
0000a0 7d 14 f7 7f 01 22 03 c5 0b 2a c9 f3 d3 5a 81 aa
       125 20 -9 127 1 34 3 -59 11 42 -55 -13 -45 90 -127 -86
0000b0 81 0b 32 f9 c9 0d b0 e8 d9 c0 01 11 81 42 4a ee
       -127 11 50 -7 -55 13 -80 -24 -39 -64 1 17 -127 66 74 -18
0000c0 7f ef ee fb a3 f3 04 10 16 ed 01 ea 7f 37 31 e5
       127 -17 -18 -5 -93 -13 4 16 22 -19 1 -22 127 55 49 -27
0000d0 ff a4 01 da 01 81 58 d1 f2 81 1c f1 fa c8 22 fb
       -1 -92 1 -38 1 -127 88 -47 -14 -127 28 -15 -6 -56 34 -5
0000e0 a1 14 d3 14 e8 f5 7f 5d f8 27 0a 06 01 28 9e 81
       -95 20 -45 20 -24 -11 127 93 -8 39 10 6 1 40 -98 -127
0000f0 7f e3 07 10 a0 0f cc d6 f8 f2 37 f0 11 99 7f 33
       127 -29 7 16 -96 15 -52 -42 -8 -14 55 -16 17 -103 127 51

model_1/block_2_project/Conv2D i1 [8, 1, 1, 48]
000000 ca f7 d5 19 0b ef 05 02 8a 7f dc 6e 7d 0d 4c ea
       -54 -9 -43 25 11 -17 5 2 -118 127 -36 110 125 13 76 -22
000010 06 d9 00 01 fb 00 e6 e5 1f 9b 06 48 f5 0d 18 d7
       6 -39 0 1 -5 0 -26 -27 31 -101 6 72 -11 13 24 -41
000020 ff ac 77 15 fc f8 fd ef 72 01 31 e9 e6 16 eb e3
       -1 -84 119 21 -4 -8 -3 -17 114 1 49 -23 -26 22 -21 -29
000030 00 26 7f 02 fc e5 0a ac 1f fa 12 ff ea 03 fb 81
       0 38 127 2 -4 -27 10 -84 31 -6 18 -1 -22 3 -5 -127
000040 0d c0 0a 03 e5 1d 11 d5 e7 f8 0b ff 13 01 10 fe
       13 -64 10 3 -27 29 17 -43 -25 -8 11 -1 19 1 16 -2
000050 05 08 11 10 ec dd 40 c6 07 2c f6 1b ed 07 23 f4
       5 8 17 16 -20 -35 64 -58 7 44 -10 27 -19 7 35 -12
000060 06 cd 10 d4 21 1c f4 e6 08 fe f7 0f f9 38 03 03
       6 -51 16 -44 33 28 -12 -26 8 -2 -9 15 -7 56 3 3
000070 d7 7f e5 dc f3 0e d3 f8 7a ff 01 fa e8 fb 01 d5
       -41 127 -27 -36 -13 14 -45 -8 122 -1 1 -6 -24 -5 1 -43
000080 fb ef 00 0a f7 f9 f4 0c 0e e7 e9 f8 02 1b ea d7
       -5 -17 0 10 -9 -7 -12 12 14 -25 -23 -8 2 27 -22 -41
000090 02 a8 ff 06 05 fa f8 00 f9 f0 09 16 0f f9 30 00
       2 -88 -1 6 5 -6 -8 0 -7 -16 9 22 15 -7 48 0
0000a0 f8 eb 00 18 f9 11 e5 04 08 35 00 0e fb 07 7f fe
       -8 -21 0 24 -7 17 -27 4 8 53 0 14 -5 7 127 -2
0000b0 10 09 fd 01 ec f1 f8 10 f2 06 f3 13 f9 04 03 22
       16 9 -3 1 -20 -15 -8 16 -14 6 -13 19 -7 4 3 34
0000c0 9e 07 fb 06 03 db 00 06 21 e0 19 eb e3 03 f8 f8
       -98 7 -5 6 3 -37 0 6 33 -32 25 -21 -29 3 -8 -8
0000d0 03 09 02 16 0e e7 10 06 fe 31 00 69 03 fb fc e2
       3 9 2 22 14 -25 16 6 -2 49 0 105 3 -5 -4 -30
0000e0 fd 81 e6 09 02 f9 00 f9 d2 f9 fa 18 c7 00 08 0a
       -3 -127 -26 9 2 -7 0 -7 -46 -7 -6 24 -57 0 8 10
0000f0 e9 16 0f 03 d2 0e f6 28 11 08 09 08 ff d9 10 20
       -23 22 15 3 -46 14 -10 40 17 8 9 8 -1 -39 16 32

model_1/block_2_depthwise_BN/FusedBatchNormV3;model_1/block_2_depthwise/depthwise;model_1/block_3_depthwise/depthwise i1 [1, 3, 3, 48]
000000 05 fc 14 6a 04 51 00 1c 0e 08 0a 07 f9 f7 d4 08
       5 -4 20 106 4 81 0 28 14 8 10 7 -7 -9 -44 8
000010 fe 08 e9 8f fa e9 7f f7 fd 06 fb 08 fc 04 0f 63
       -2 8 -23 -113 -6 -23 127 -9 -3 6 -5 8 -4 4 15 99
000020 15 1c 25 e5 02 22 fd 04 12 bc f8 f8 10 01 fa f6
       21 28 37 -27 2 34 -3 4 18 -68 -8 -8 16 1 -6 -10
000030 7f 09 0f 81 1b 56 0c 0b 7a 7f 08 2b cf e8 05 08
       127 9 15 -127 27 86 12 11 122 127 8 43 -49 -24 5 8
000040 7f c8 c4 c8 9c 19 94 0f 11 47 e1 ac 18 15 09 84
       127 -56 -60 -56 -100 25 -108 15 17 71 -31 -84 24 21 9 -124
000050 06 c3 7f 0a d9 d1 f9 76 b2 9f e2 03 de f7 81 18
       6 -61 127 10 -39 -47 -7 118 -78 -97 -30 3 -34 -9 -127 24
000060 e1 fe 08 0d ff 41 05 12 1a 08 f4 1f f3 fd 0f 04
       -31 -2 8 13 -1 65 5 18 26 8 -12 31 -13 -3 15 4
000070 98 1d fc 4e e1 f5 ef fa fc c4 fe 1d f0 05 04 eb
       -104 29 -4 78 -31 -11 -17 -6 -4 -60 -2 29 -16 5 4 -21
000080 08 e8 10 ee 00 2f 29 f5 32 26 ef 0b d6 01 ff fb
       8 -24 16 -18 0 47 41 -11 50 38 -17 11 -42 1 -1 -5
000090 7d 06 01 9e 0d e5 24 f0 07 09 f4 35 fa ff 13 df
       125 6 1 -98 13 -27 36 -16 7 9 -12 53 -6 -1 19 -33
0000a0 00 ce c4 ab 0a b6 85 ee 05 63 f1 81 f8 20 0c 92
       0 -50 -60 -85 10 -74 -123 -18 5 99 -15 -127 -8 32 12 -110
0000b0 12 cb fd 7f fe 3b d5 2a c2 81 27 a9 d4 f1 f4 fb
       18 -53 -3 127 -2 59 -43 42 -62 -127 39 -87 -44 -15 -12 -5
0000c0 1a 81 81 70 81 81 81 81 81 a0 7f 81 7f 7f 23 81
       26 -127 -127 112 -127 -127 -127 -127 -127 -96 127 -127 127 127 35 -127
0000d0 ad 7f 7f 96 7f 7f 70 7f 7f 81 81 1c 81 81 5c 7f
       -83 127 127 -106 127 127 112 127 127 -127 -127 28 -127 -127 92 127
0000e0 81 7f e3 d7 7f 81 7f 7f 7f ae 7f 7f 7f 85 66 6c
       -127 127 -29 -41 127 -127 127 127 127 -82 127 127 127 -123 102 108
0000f0 36 06 31 f2 05 c3 2d 12 e7 0f 98 f9 01 d8 7f 04
       54 6 49 -14 5 -61 45 18 -25 15 -104 -7 1 -40 127 4

model_1/block_2_expand/Conv2D i1 [48, 1, 1, 8]
000000 5e 24 ff f7 7f 15 ca e3 fc 02 fb 7f 0e f8 03 0b
       94 36 -1 -9 127 21 -54 -29 -4 2 -5 127 14 -8 3 11
000010 1e 81 e9 2e f7 c1 4c 01 7f eb f1 0b f1 df 1f 00
       30 -127 -23 46 -9 -63 76 1 127 -21 -15 11 -15 -33 31 0
000020 ff d9 7f f8 f6 ce 19 a0 42 0c 03 0b 7f 07 fb f5
       -1 -39 127 -8 -10 -50 25 -96 66 12 3 11 127 7 -5 -11
000030 ee 49 01 7f 1f 32 c6 d6 fb 7f f9 fc 08 ec 15 01
       -18 73 1 127 31 50 -58 -42 -5 127 -7 -4 8 -20 21 1
000040 7f 2f f5 0c c4 e4 07 db 81 15 05 0b 2e 08 f9 fa
       127 47 -11 12 -60 -28 7 -37 -127 21 5 11 46 8 -7 -6
000050 b4 fa 14 7f 32 22 ec fc 81 01 04 c3 1b 04 ec d2
       -76 -6 20 127 50 34 -20 -4 -127 1 4 -61 27 4 -20 -46
000060 7f 11 f5 11 c5 f3 03 cf ff 45 81 05 06 66 b8 48
       127 17 -11 17 -59 -13 3 -49 -1 69 -127 5 6 102 -72 72
000070 d5 db ec 7f 0c 0d f7 f2 fd 7f 00 fb ff ee 0e cf
       -43 -37 -20 127 12 13 -9 -14 -3 127 0 -5 -1 -18 14 -49
000080 0b 81 e3 fb de 9e 73 d9 19 7f 00 f6 0e 4a a9 ea
       11 -127 -29 -5 -34 -98 115 -39 25 127 0 -10 14 74 -87 -22
000090 fb 25 81 f9 01 37 dd 43 bd 0d 02 0a 81 01 21 0f
       -5 37 -127 -7 1 55 -35 67 -67 13 2 10 -127 1 33 15
0000a0 81 df f8 f4 41 f1 1f 08 b6 f4 fa fc 81 0a 12 01
       -127 -33 -8 -12 65 -15 31 8 -74 -12 -6 -4 -127 10 18 1
0000b0 81 e6 fd f5 4b f8 22 2d f3 e6 f8 f3 fb 54 81 ad
       -127 -26 -3 -11 75 -8 34 45 -13 -26 -8 -13 -5 84 -127 -83
0000c0 fb 26 81 08 08 31 ea 4f 57 ca 04 7f cd f5 00 dc
       -5 38 -127 8 8 49 -22 79 87 -54 4 127 -51 -11 0 -36
0000d0 fc ed 00 03 ff 7b 7f e3 55 fd f6 08 7f 1d 19 e1
       -4 -19 0 3 -1 123 127 -29 85 -3 -10 8 127 29 25 -31
0000e0 fb 7f b6 04 0b 46 e1 7d fc 09 f0 f5 03 64 81 a4
       -5 127 -74 4 11 70 -31 125 -4 9 -16 -11 3 100 -127 -92
0000f0 07 fb ff 81 f7 03 f9 ef b7 fe f2 ea 81 0b 15 04
       7 -5 -1 -127 -9 3 -7 -17 -73 -2 -14 -22 -127 11 21 4

model_1/block_1_project/Conv2D i1 [8, 1, 1, 48]
000000 f5 ff 0c aa 06 19 06 06 03 07 ff fd 5e 00 05 04
       -11 -1 12 -86 6 25 6 6 3 7 -1 -3 94 0 5 4
000010 00 f8 fd 02 48 fc ff 05 1b 21 0d 0b 07 04 00 81
       0 -8 -3 2 72 -4 -1 5 27 33 13 11 7 4 0 -127
000020 05 08 fe 04 e4 03 f2 20 08 e5 f8 06 00 fe 05 02
       5 8 -2 4 -28 3 -14 32 8 -27 -8 6 0 -2 5 2
000030 d9 f5 ff fa 29 19 dd 48 14 04 e3 ec 0b 00 14 22
       -39 -11 -1 -6 41 25 -35 72 20 4 -29 -20 11 0 20 34
000040 00 28 12 d1 00 12 7f 13 e4 fe 35 07 14 f8 0f f1
       0 40 18 -47 0 18 127 19 -28 -2 53 7 20 -8 15 -15
000050 0a f9 f4 f3 06 cc 0a 06 fd f4 aa f8 db 06 cf a0
       10 -7 -12 -13 6 -52 10 6 -3 -12 -86 -8 -37 6 -49 -96
000060 c4 11 fe 0c 2d f1 1c 19 f2 33 0b f3 fb 00 05 37
       -60 17 -2 12 45 -15 28 25 -14 51 11 -13 -5 0 5 55
000070 00 0f 81 17 fd 13 05 f0 dc 04 23 04 06 1f 17 03
       0 15 -127 23 -3 19 5 -16 -36 4 35 4 6 31 23 3
000080 08 f7 f7 f3 0d 02 03 06 25 f3 dc ff 17 c8 18 0d
       8 -9 -9 -13 13 2 3 6 37 -13 -36 -1 23 -56 24 13
000090 03 fe ff 07 fb 1c 01 fa 43 0f fe 00 1a 00 e1 01
       3 -2 -1 7 -5 28 1 -6 67 15 -2 0 26 0 -31 1
0000a0 00 fc f8 01 fb ff 07 ec f3 fb f6 fe ff fd 02 fa
       0 -4 -8 1 -5 -1 7 -20 -13 -5 -10 -2 -1 -3 2 -6
0000b0 ce 2c cc 00 04 ff 06 81 fe 04 00 c9 fd ff 00 06
       -50 44 -52 0 4 -1 6 -127 -2 4 0 -55 -3 -1 0 6
0000c0 fc fb 52 23 01 ef ff 00 03 fd fe fb b1 00 f8 07
       -4 -5 82 35 1 -17 -1 0 3 -3 -2 -5 -79 0 -8 7
0000d0 00 07 06 fe 45 05 00 fe f3 21 fe 2b f7 ff fd 68
       0 7 6 -2 69 5 0 -2 -13 33 -2 43 -9 -1 -3 104
0000e0 03 04 fe 01 0e f7 f8 f1 fb 81 ff 03 fc 01 03 fe
       3 4 -2 1 14 -9 -8 -15 -5 -127 -1 3 -4 1 3 -2
0000f0 f7 2d 07 fa 00 35 1a 0a eb 1e 09 3c 19 00 81 fe
       -9 45 7 -6 0 53 26 10 -21 30 9 60 25 0 -127 -2

model_1/block_1_depthwise_BN/FusedBatchNormV3;model_1/block_1_depthwise/depthwise;model_1/block_3_depthwise/depthwise i1 [1, 3, 3, 48]
000000 d5 e9 f9 ef 07 d8 b1 bd e5 ce 09 45 23 b9 74 d6
       -43 -23 -7 -17 7 -40 -79 -67 -27 -50 9 69 35 -71 116 -42
000010 8f ac 24 f9 fe bd 90 b3 de 84 c0 ec 47 0f 60 19
       -113 -84 36 -7 -2 -67 -112 -77 -34 -124 -64 -20 71 15 96 25
000020 81 a5 fa 34 13 2f 81 4e b4 f2 6a 93 fd dd a9 6c
       -127 -91 -6 52 19 47 -127 78 -76 -14 106 -109 -3 -35 -87 108
000030 4c 0d e4 e4 3a 81 81 af 3c b6 8d 6e 26 ae ff 3e
       76 13 -28 -28 58 -127 -127 -81 60 -74 -115 110 38 -82 -1 62
000040 cc 90 3a 07 0a 90 81 bc fc 81 8a d8 cb 15 c7 35
       -52 -112 58 7 10 -112 -127 -68 -4 -127 -118 -40 -53 21 -57 53
000050 1c 81 40 53 0e 48 a2 7f 81 07 7d 81 01 e9 81 5f
       28 -127 64 83 14 72 -94 127 -127 7 125 -127 1 -23 -127 95
000060 e0 2c 06 fd c0 93 c6 ee 59 f9 81 2a 09 b9 9c f4
       -32 44 6 -3 -64 -109 -58 -18 89 -7 -127 42 9 -71 -100 -12
000070 81 e7 1b 0c f0 b5 dd e8 f6 e3 c7 f4 f8 11 e8 0a
       -127 -25 27 12 -16 -75 -35 -24 -10 -29 -57 -12 -8 17 -24 10
000080 69 a9 46 1f 0e 23 fc 12 b1 04 06 b0 ef 05 c8 0f
       105 -87 70 31 14 35 -4 18 -79 4 6 -80 -17 5 -56 15
000090 aa 81 d3 d5 f5 35 64 97 e7 95 eb 71 5a c0 1b 9f
       -86 -127 -45 -43 -11 53 100 -105 -25 -107 -21 113 90 -64 27 -97
0000a0 87 a3 59 b4 28 a8 98 81 2a 88 b2 db 7f c3 7f 54
       -121 -93 89 -76 40 -88 -104 -127 42 -120 -78 -37 127 -61 127 84
0000b0 d6 a9 f2 54 df b3 94 5b 29 3c 69 92 a6 8a 53 77
       -42 -87 -14 84 -33 -77 -108 91 41 60 105 -110 -90 -118 83 119
0000c0 7f ac 81 81 7f 28 5f 81 66 81 92 7f 7f f2 f9 7f
       127 -84 -127 -127 127 40 95 -127 102 -127 -110 127 127 -14 -7 127
0000d0 c4 81 7f 81 7f 81 87 8b 7f 9d 81 81 89 81 b9 7f
       -60 -127 127 -127 127 -127 -121 -117 127 -99 -127 -127 -119 -127 -71 127
0000e0 1d 90 7f 7f bd 81 9c 5a 3c 7f 7f 8b 91 81 7d 7f
       29 -112 127 127 -67 -127 -100 90 60 127 127 -117 -111 -127 125 127
0000f0 ca 1e c2 ad 87 e8 20 db 7f ec b5 24 37 ba e7 d4
       -54 30 -62 -83 -121 -24 32 -37 127 -20 -75 36 55 -70 -25 -44

model_1/block_1_expand/Conv2D i1 [48, 1, 1, 8]
000000 12 81 2e d8 19 ec d1 19 3e 3b e3 9e 14 ee c3 7f
       18 -127 46 -40 25 -20 -47 25 62 59 -29 -98 20 -18 -61 127
000010 20 0a d1 7f 39 77 33 58 4f 47 b0 7f 98 f8 f9 02
       32 10 -47 127 57 119 51 88 79 71 -80 127 -104 -8 -7 2
000020 dc 99 47 05 06 18 d5 81 16 0c e2 34 fb e5 2a 7f
       -36 -103 71 5 6 24 -43 -127 22 12 -30 52 -5 -27 42 127
000030 2d eb 81 b0 59 0b 2a db 7f 10 15 ee 1c fc 61 c0
       45 -21 -127 -80 89 11 42 -37 127 16 21 -18 28 -4 97 -64
000040 17 9e 0c 6b 01 1d fc 81 64 81 06 05 f4 11 8f 5a
       23 -98 12 107 1 29 -4 -127 100 -127 6 5 -12 17 -113 90
000050 81 d9 83 1b f2 17 a0 39 ea cd fb 8a 81 d9 33 f1
       -127 -39 -125 27 -14 23 -96 57 -22 -51 -5 -118 -127 -39 51 -15
000060 0e 0e e0 47 aa f4 3b 7f 00 00 00 00 00 00 00 00
       14 14 -32 71 -86 -12 59 127 0 0 0 0 0 0 0 0
000070 02 d8 ff 0f 2a 7f 30 27 28 07 11 81 3d 2e c8 46
       2 -40 -1 15 42 127 48 39 40 7 17 -127 61 46 -56 70
000080 00 00 00 00 00 00 00 00 0b 11 7f 19 e4 fb 1f 20
       0 0 0 0 0 0 0 0 11 17 127 25 -28 -5 31 32
000090 57 81 19 22 fc 1a 94 04 81 ff 29 54 b9 bb 96 57
       87 -127 25 34 -4 26 -108 4 -127 -1 41 84 -71 -69 -106 87
0000a0 24 1f d4 71 db 81 fa 42 38 17 7f 0b ef f9 41 0a
       36 31 -44 113 -37 -127 -6 66 56 23 127 11 -17 -7 65 10
0000b0 ae ed 81 05 07 0c 9a 01 9e 7e f0 f3 05 f5 7f b9
       -82 -19 -127 5 7 12 -102 1 -98 126 -16 -13 5 -11 127 -71
0000c0 06 bf c5 60 f5 be 69 7f 10 34 27 26 7f 7b b4 d0
       6 -65 -59 96 -11 -66 105 127 16 52 39 38 127 123 -76 -48
0000d0 a9 e0 81 04 04 16 a6 fd 05 eb e4 04 ca 7f 4a 39
       -87 -32 -127 4 4 22 -90 -3 5 -21 -28 4 -54 127 74 57
0000e0 02 ed ea 2d 24 7f 3b 42 5c 1f 7f fe ed f6 58 fb
       2 -19 -22 45 36 127 59 66 92 31 127 -2 -19 -10 88 -5
0000f0 b0 7f e1 e1 0b fa 62 ce d5 a3 ef 05 21 b7 7f 70
       -80 127 -31 -31 11 -6 98 -50 -43 -93 -17 5 33 -73 127 112

model_1/expanded_conv_project/Conv2D i1 [8, 1, 1, 16]
000000 00 e7 02 fd 7e 05 f7 02 ff 81 a7 fd 00 7a 02 00
       0 -25 2 -3 126 5 -9 2 -1 -127 -89 -3 0 122 2 0
000010 00 e0 00 53 4a 11 16 08 00 fb 7f d6 00 1b f3 00
       0 -32 0 83 74 17 22 8 0 -5 127 -42 0 27 -13 0
000020 00 03 00 f6 c4 01 0d 03 00 03 ed 01 00 7f f9 00
       0 3 0 -10 -60 1 13 3 0 3 -19 1 0 127 -7 0
000030 00 f2 ea 81 4d 1c 3b 11 ff 3a 03 20 00 00 0f 00
       0 -14 -22 -127 77 28 59 17 -1 58 3 32 0 0 15 0
000040 00 37 e3 1f c9 22 7f 0a 01 be 15 f8 00 f6 0f 00
       0 55 -29 31 -55 34 127 10 1 -66 21 -8 0 -10 15 0
000050 00 ef f4 fe ea ec f5 10 00 09 fc d3 00 fc 7f 00
       0 -17 -12 -2 -22 -20 -11 16 0 9 -4 -45 0 -4 127 0
000060 00 12 fc fe 33 eb eb f7 00 9c 6e 39 00 7f 38 00
       0 18 -4 -2 51 -21 -21 -9 0 -100 110 57 0 127 56 0
000070 00 0b ed 7f 0a 04 12 08 01 48 ca 4b 00 fc 34 00
       0 11 -19 127 10 4 18 8 1 72 -54 75 0 -4 52 0

model_1/expanded_conv_depthwise_BN/FusedBatchNormV3;model_1/expanded_conv_depthwise/depthwise;model_1/block_5_project/Conv2D i1 [1, 3, 3, 16]
000000 94 13 ae 82 27 bd 50 b4 a6 fd f8 1d 81 05 36 b7
       -108 19 -82 -126 39 -67 80 -76 -90 -3 -8 29 -127 5 54 -73
000010 33 19 81 7f 7f 81 7f 81 ab 7f 81 33 97 05 7f e7
       51 25 -127 127 127 -127 127 -127 -85 127 -127 51 -105 5 127 -25
000020 18 e8 5b fe b8 43 a1 4d a1 e5 04 f0 3d 01 9a e3
       24 -24 91 -2 -72 67 -95 77 -95 -27 4 -16 61 1 -102 -29
000030 81 7f ea 0d d4 0f e3 0e e4 01 03 93 cf 08 e2 f2
       -127 127 -22 13 -44 15 -29 14 -28 1 3 -109 -49 8 -30 -14
000040 b2 d7 c7 f1 f8 e6 08 e4 94 a7 14 f4 98 81 01 17
       -78 -41 -57 -15 -8 -26 8 -28 -108 -89 20 -12 -104 -127 1 23
000050 0e 01 42 02 03 21 e6 21 81 06 fe 01 eb 0c fc 2b
       14 1 66 2 3 33 -26 33 -127 6 -2 1 -21 12 -4 43
000060 8d b8 46 02 fa 27 d8 34 b4 00 00 05 28 02 e5 17
       -115 -72 70 2 -6 39 -40 52 -76 0 0 5 40 2 -27 23
000070 17 fc 20 fe e5 28 de 15 83 f3 ff 54 c6 00 e3 91
       23 -4 32 -2 -27 40 -34 21 -125 -13 -1 84 -58 0 -29 -111
000080 15 f9 14 00 04 0e 09 16 8d 04 ff 81 6b 03 11 81
       21 -7 20 0 4 14 9 22 -115 4 -1 -127 107 3 17 -127

model_1/Conv1/Conv2D i1 [16, 3, 3, 3]
000000 00 00 00 00 00 00 00 00 00 00 00 00 00 00 00 00
       0 0 0 0 0 0 0 0 0 0 0 0 0 0 0 0
000010 00 00 00 00 00 00 00 00 00 00 00 29 f7 18 f8 e5
       0 0 0 0 0 0 0 0 0 0 0 41 -9 24 -8 -27
000020 0a 81 87 bb fe f6 fa e6 fd f6 fa db fe f9 0c fa
       10 -127 -121 -69 -2 -10 -6 -26 -3 -10 -6 -37 -2 -7 12 -6
000030 f6 01 f8 20 e7 05 29 03 03 56 7d 06 2c d9 09 07
       -10 1 -8 32 -25 5 41 3 3 86 125 6 44 -39 9 7
000040 09 fb 44 7f dd 0d f3 f1 2f b6 10 48 cc e4 1c c0
       9 -5 68 127 -35 13 -13 -15 47 -74 16 72 -52 -28 28 -64
000050 09 09 25 06 24 65 17 04 09 fe 1b 2b 0b 40 7f 15
       9 9 37 6 36 101 23 4 9 -2 27 43 11 64 127 21
000060 ef e9 01 0b 09 0a 1d 1d 0a fe fb 02 28 4a f6 0d
       -17 -23 1 11 9 10 29 29 10 -2 -5 2 40 74 -10 13
000070 51 f2 e8 01 f5 32 61 36 24 7f 22 1c 32 ee 35 4c
       81 -14 -24 1 -11 50 97 54 36 127 34 28 50 -18 53 76
000080 20 33 7e 12 e8 16 12 08 02 8c fb ff 99 ff 1f e9
       32 51 126 18 -24 22 18 8 2 -116 -5 -1 -103 -1 31 -23
000090 02 d4 81 ff d5 91 03 11 ee 07 11 f8 0a 05 fd 05
       2 -44 -127 -1 -43 -111 3 17 -18 7 17 -8 10 5 -3 5
0000a0 11 fa 1a c3 23 2e ab 27 08 ec 08 24 a2 3c 3c 81
       17 -6 26 -61 35 46 -85 39 8 -20 8 36 -94 60 60 -127
0000b0 44 06 e3 0f 15 df 0e 0f d6 1a f4 07 ff e5 14 08
       68 6 -29 15 21 -33 14 15 -42 26 -12 7 -1 -27 20 8
0000c0 96 d9 01 e9 18 03 f5 fb 03 81 a2 f6 fa fb 05 e9
       -106 -39 1 -23 24 3 -11 -5 3 -127 -94 -10 -6 -5 5 -23
0000d0 1e f8 f3 0a ff ea 18 fd 7b 7f 74 7b 7f 73 7a 7d
       30 -8 -13 10 -1 -22 24 -3 123 127 116 123 127 115 122 125
0000e0 72 7c 7e 73 79 7c 71 7a 7c 71 79 7b 71 78 7c 71
       114 124 126 115 121 124 113 122 124 113 121 123 113 120 124 113
0000f0 79 7b 70 ed ff 0b f7 fe 04 07 07 f9 61 73 f9 4a
       121 123 112 -19 -1 11 -9 -2 4 7 7 -7 97 115 -7 74
