v3-0-0-grove-vision-ai-v2-and-xiao-esp32s3/ei-v41.lite (tflite, 56264 bytes, 21 tensors)

model_1/logits/Conv2D i1 [2, 1, 1, 32]
29 -49 -52 123 -17 -7 -59 49
84 -79 -34 -33 -30 44 -58 28
71 -44 -30 -78 113 41 74 -66
-83 -89 -31 127 15 -29 87 41
44 59 56 -79 -84 57 -5 8
-28 -6 27 80 87 33 32 -1
-30 -1 -45 -67 -61 31 23 85
67 59 -36 -25 72 -82 -127 -12
00000000: 1dcf cc7b eff9 c531 54b1 dedf e22c c61c
00000010: 47d4 e2b2 7129 4abe ada7 e17f 0fe3 5729
00000020: 2c3b 38b1 ac39 fb08 e4fa 1b50 5721 20ff
00000030: e2ff d3bd c31f 1755 433b dce7 48ae 81f4

model_1/head/Conv2D i1 [32, 1, 1, 96]
-42 -55 108 14 99 -6 -82 -96
43 -101 -101 5 56 3 -32 44
-52 -32 -70 -49 -67 -102 11 111
-92 8 78 -42 111 4 -17 -66
87 -63 -89 72 -97 -75 -86 30
76 -78 -89 103 45 -113 96 -5
17 -53 -23 98 -66 -57 -91 103
30 70 127 -99 -66 87 -62 50
-1 17 75 94 59 97 77 -108
91 -92 33 86 -96 21 -56 41
58 27 96 -1 -69 -37 -83 105
22 100 -29 -105 20 85 36 18
-64 30 -63 6 -29 90 43 15
63 -107 -99 117 73 -43 34 62
119 -37 8 126 -48 -9 46 38
43 14 -32 112 17 13 107 -55
69 104 -5 40 65 61 -10 -56
-62 11 -15 -91 -35 36 -36 -48
-18 -90 125 64 19 72 -75 -45
30 109 75 93 -49 127 -104 -74
-49 41 85 42 114 37 13 17
-118 97 -55 50 91 -35 -39 79
-72 95 -46 -111 5 111 -64 -60
64 58 67 35 94 117 37 -13
38 34 -53 102 -12 -50 93 100
-116 82 -29 127 97 -33 92 -114
-48 -23 7 62 -96 -21 121 31
-15 76 113 13 -62 88 87 104
-60 -22 -88 -95 -73 94 110 -18
-116 -72 22 1 -84 116 -31 -70
105 33 100 -83 -38 51 25 23
-67 103 -49 14 -8 70 -71 75
00000000: d6c9 6c0e 63fa aea0 2b9b 9b05 3803 e02c
00000010: cce0 bacf bd9a 0b6f a408 4ed6 6f04 efbe
00000020: 57c1 a748 9fb5 aa1e 4cb2 a767 2d8f 60fb
00000030: 11cb e962 bec7 a567 1e46 7f9d be57 c232
00000040: ff11 4b5e 3b61 4d94 5ba4 2156 a015 c829
00000050: 3a1b 60ff bbdb ad69 1664 e397 1455 2412
00000060: c01e c106 e35a 2b0f 3f95 9d75 49d5 223e
00000070: 77db 087e d0f7 2e26 2b0e e070 110d 6bc9
00000080: 4568 fb28 413d f6c8 c20b f1a5 dd24 dcd0
00000090: eea6 7d40 1348 b5d3 1e6d 4b5d cf7f 98b6
000000a0: cf29 552a 7225 0d11 8a61 c932 5bdd d94f
000000b0: b85f d291 056f c0c4 403a 4323 5e75 25f3
000000c0: 2622 cb66 f4ce 5d64 8c52 e37f 61df 5c8e
000000d0: d0e9 073e a0eb 791f f14c 710d c258 5768
000000e0: c4ea a8a1 b75e 6eee 8cb8 1601 ac74 e1ba
000000f0: 6921 64ad da33 1917 bd67 cf0e f846 b94b

model_1/block_6_expand/Conv2D i1 [96, 1, 1, 16]
-9 95 -84 33 49 -24 103 69
-54 -1 31 -89 77 127 -58 20
-29 -1 -68 -20 -12 50 38 -127
34 -44 -25 -71 2 -47 -55 6
-25 -23 27 70 26 46 -109 127
-15 4 70 -61 -15 -64 -47 63
98 -105 82 -2 -10 -37 -27 127
-29 55 81 62 -18 52 16 17
-33 -29 -4 57 -98 15 -25 -122
10 -13 46 -7 26 45 102 127
127 25 -32 -28 -72 22 17 68
29 -16 50 83 126 24 -91 -3
11 -39 -49 -45 -77 1 -1 -53
-52 -53 -18 38 77 42 127 -1
-50 32 -36 -74 9 -45 -72 19
-76 51 -72 -66 -127 -32 12 78
50 49 66 8 55 21 67 14
72 -23 37 8 -127 -28 -57 11
-43 63 31 -47 -24 -21 31 -15
-26 49 -45 11 54 127 21 24
77 56 -47 55 -25 -16 53 -63
-69 -36 -65 -106 -127 -78 10 96
53 2 64 12 -16 -28 5 101
-81 18 -23 12 -22 -8 66 127
-56 -31 14 8 18 -4 127 38
-69 26 12 -7 -13 81 -41 120
0 67 55 67 110 -3 66 115
-44 95 -99 -64 68 75 -127 -55
-116 117 11 -7 -10 1 58 -4
-44 25 127 -1 -99 15 -38 55
-9 -13 -127 -45 77 -37 -84 -25
-16 -19 -17 -68 -13 -76 -54 44
00000000: f75f ac21 31e8 6745 caff 1fa7 4d7f c614
00000010: e3ff bcec f432 2681 22d4 e7b9 02d1 c906
00000020: e7e9 1b46 1a2e 937f f104 46c3 f1c0 d13f
00000030: 6297 52fe f6db e57f e337 513e ee34 1011
00000040: dfe3 fc39 9e0f e786 0af3 2ef9 1a2d 667f
00000050: 7f19 e0e4 b816 1144 1df0 3253 7e18 a5fd
00000060: 0bd9 cfd3 b301 ffcb cccb ee26 4d2a 7fff
00000070: ce20 dcb6 09d3 b813 b433 b8be 81e0 0c4e
00000080: 3231 4208 3715 430e 48e9 2508 81e4 c70b
00000090: d53f 1fd1 e8eb 1ff1 e631 d30b 367f 1518
000000a0: 4d38 d137 e7f0 35c1 bbdc bf96 81b2 0a60
000000b0: 3502 400c f0e4 0565 af12 e90c eaf8 427f
000000c0: c8e1 0e08 12fc 7f26 bb1a 0cf9 f351 d778
000000d0: 0043 3743 6efd 4273 d45f 9dc0 444b 81c9
000000e0: 8c75 0bf9 f601 3afc d419 7fff 9d0f da37
000000f0: f7f3 81d3 4ddb ace7 f0ed efbc f3b4 ca2c

model_1/block_5_project/Conv2D i1 [16, 1, 1, 96]
-110 43 53 -28 -83 -14 -70 -5
-69 6 -9 -42 22 49 46 -40
21 -2 103 6 7 -62 127 58
47 25 14 26 -68 -125 -91 4
-43 -57 37 21 5 21 0 29
-17 -8 -85 8 -67 -23 -8 99
-31 25 -55 -26 -9 -5 26 -59
-119 6 -16 72 64 32 3 1
-24 -60 -56 29 -65 -77 1 -30
16 2 -90 -50 -53 9 -30 6
-54 74 84 -72 13 47 6 49
46 -24 -2 -24 -42 -44 -59 15
59 19 27 -60 -45 -28 2 13
-22 34 56 -57 28 -12 -77 -41
-8 7 -68 41 -21 -107 22 35
-40 -52 0 -52 54 -113 118 -68
60 26 -21 58 27 80 -34 -43
30 29 -10 -21 -13 79 -127 -61
-66 -55 -9 -28 52 -42 -42 55
37 -3 -28 34 41 50 -11 -81
4 -7 -69 -17 3 -2 -102 -9
-59 -16 23 -68 -4 30 5 -71
-36 -40 -99 -14 13 -32 -37 -3
-86 -12 -59 34 25 63 -54 59
69 -34 28 30 22 -73 59 5
-15 -13 -15 -10 -97 -38 16 -11
-107 -59 -31 53 14 -44 -43 34
24 -67 0 -22 -28 56 -57 127
-62 127 -31 21 3 -24 -8 -4
-112 81 88 28 -51 -4 -37 0
34 7 -27 -49 37 -43 -23 79
23 1 58 -27 0 41 -37 13
00000000: 922b 35e4 adf2 bafb bb06 f7d6 1631 2ed8
00000010: 15fe 6706 07c2 7f3a 2f19 0e1a bc83 a504
00000020: d5c7 2515 0515 001d eff8 ab08 bde9 f863
00000030: e119 c9e6 f7fb 1ac5 8906 f048 4020 0301
00000040: e8c4 c81d bfb3 01e2 1002 a6ce cb09 e206
00000050: ca4a 54b8 0d2f 0631 2ee8 fee8 d6d4 c50f
00000060: 3b13 1bc4 d3e4 020d ea22 38c7 1cf4 b3d7
00000070: f807 bc29 eb95 1623 d8cc 00cc 368f 76bc
00000080: 3c1a eb3a 1b50 ded5 1e1d f6eb f34f 81c3
00000090: bec9 f7e4 34d6 d637 25fd e422 2932 f5af
000000a0: 04f9 bbef 03fe 9af7 c5f0 17bc fc1e 05b9
000000b0: dcd8 9df2 0de0 dbfd aaf4 c522 193f ca3b
000000c0: 45de 1c1e 16b7 3b05 f1f3 f1f6 9fda 10f5
000000d0: 95c5 e135 0ed4 d522 18bd 00ea e438 c77f
000000e0: c27f e115 03e8 f8fc 9051 581c cdfc db00
000000f0: 2207 e5cf 25d5 e94f 1701 3ae5 0029 db0d

model_1/block_5_depthwise_BN/FusedBatchNormV3;model_1/block_5_depthwise/depthwise;model_1/block_6_expand/Conv2D i1 [1, 3, 3, 96]
14 97 -10 10 -40 11 42 36
59 -62 -84 62 -38 0 41 -74
-100 2 24 28 19 68 89 66
35 4 -52 11 -5 53 10 24
-55 14 -23 84 -19 53 8 -52
22 -42 -5 41 -123 -114 9 5
-26 -82 -62 -3 -14 61 -9 -15
-77 -66 -29 -127 -85 4 -106 6
-39 33 57 -18 -30 50 53 -13
-37 10 42 -1 28 -45 -70 26
6 -36 60 -34 -92 -70 -12 42
-127 12 -80 45 69 -18 50 0
-27 -38 -7 79 -19 102 -20 16
83 32 -117 78 -41 -34 -105 106
-111 64 38 91 102 10 123 127
31 10 18 63 1 127 -11 -127
106 100 9 24 52 127 -6 -127
127 -8 87 127 -70 -127 127 -37
-11 -124 -127 -27 -18 127 -20 -127
34 37 -74 -74 12 -127 -49 81
-43 77 127 -26 4 127 127 5
-67 27 -32 -113 63 -78 -17 127
-14 -31 127 -69 -127 -65 63 72
53 115 -101 11 127 -24 127 17
19 -106 -6 19 -15 -8 -13 35
18 52 -55 26 -21 43 9 -111
-17 3 1 16 17 56 72 65
33 -12 42 49 7 41 4 -55
-51 -80 -27 55 -6 -11 19 -43
-3 20 -17 28 -50 -63 -10 3
26 -66 18 14 -13 -15 -2 16
72 -81 2 -73 -127 5 -93 -13
00000000: 0e61 f60a d80b 2a24 3bc2 ac3e da00 29b6
00000010: 9c02 181c 1344 5942 2304 cc0b fb35 0a18
00000020: c90e e954 ed35 08cc 16d6 fb29 858e 0905
00000030: e6ae c2fd f23d f7f1 b3be e381 ab04 9606
00000040: d921 39ee e232 35f3 db0a 2aff 1cd3 ba1a
00000050: 06dc 3cde a4ba f42a 810c b02d 45ee 3200
00000060: e5da f94f ed66 ec10 5320 8b4e d7de 976a
00000070: 9140 265b 660a 7b7f 1f0a 123f 017f f581
00000080: 6a64 0918 347f fa81 7ff8 577f ba81 7fdb
00000090: f584 81e5 ee7f ec81 2225 b6b6 0c81 cf51
000000a0: d54d 7fe6 047f 7f05 bd1b e08f 3fb2 ef7f
000000b0: f2e1 7fbb 81bf 3f48 3573 9b0b 7fe8 7f11
000000c0: 1396 fa13 f1f8 f323 1234 c91a eb2b 0991
000000d0: ef03 0110 1138 4841 21f4 2a31 0729 04c9
000000e0: cdb0 e537 faf5 13d5 fd14 ef1c cec1 f603
000000f0: 1abe 120e f3f1 fe10 48af 02b7 8105 a3f3

model_1/block_5_expand/Conv2D i1 [96, 1, 1, 16]
-30 86 5 -19 -60 -74 -79 -47
37 -35 22 -80 112 -122 9 -127
-127 82 -109 -108 -118 -2 9 62
-63 19 101 -80 47 127 14 62
-60 -12 -85 2 -6 -45 31 -39
-100 127 73 -1 44 57 -52 109
-37 -56 1 -45 -106 20 -82 -124
-30 6 66 -100 -86 -38 -127 -42
97 14 -32 32 -63 1 -127 37
-9 65 17 43 10 6 -40 -96
-72 52 -79 -41 39 -56 -15 -86
78 -42 0 -54 23 -127 -101 -83
-13 -41 -16 20 -75 57 32 -32
-9 -45 127 1 -20 0 -98 15
-33 95 127 -56 58 86 -37 -55
22 53 -98 -20 98 31 22 64
-73 5 55 -14 38 -25 78 127
-65 -14 -65 -69 59 81 -73 -81
25 34 79 67 -116 -27 -118 -91
65 10 127 23 -21 -102 75 5
-24 -127 8 -65 -127 59 63 42
-33 -42 5 17 -20 65 -109 40
97 -82 9 102 -127 -54 63 1
119 117 -40 49 9 -77 -12 121
-92 -59 127 -17 62 -50 33 26
61 -17 92 77 -19 39 -94 33
-18 -60 29 32 10 8 120 33
-93 16 5 25 -18 127 107 -75
107 -88 127 12 54 27 106 57
79 90 51 35 114 -39 37 -49
-23 116 19 -32 30 117 -68 72
-51 -35 -23 12 -48 127 -10 -60
00000000: e256 05ed c4b6 b1d1 25dd 16b0 7086 0981
00000010: 8152 9394 8afe 093e c113 65b0 2f7f 0e3e
00000020: c4f4 ab02 fad3 1fd9 9c7f 49ff 2c39 cc6d
00000030: dbc8 01d3 9614 ae84 e206 429c aada 81d6
00000040: 610e e020 c101 8125 f741 112b 0a06 d8a0
00000050: b834 b1d7 27c8 f1aa 4ed6 00ca 1781 9bad
00000060: f3d7 f014 b539 20e0 f7d3 7f01 ec00 9e0f
00000070: df5f 7fc8 3a56 dbc9 1635 9eec 621f 1640
00000080: b705 37f2 26e7 4e7f bff2 bfbb 3b51 b7af
00000090: 1922 4f43 8ce5 8aa5 410a 7f17 eb9a 4b05
000000a0: e881 08bf 813b 3f2a dfd6 0511 ec41 9328
000000b0: 61ae 0966 81ca 3f01 7775 d831 09b3 f479
000000c0: a4c5 7fef 3ece 211a 3def 5c4d ed27 a221
000000d0: eec4 1d20 0a08 7821 a310 0519 ee7f 6bb5
000000e0: 6ba8 7f0c 361b 6a39 4f5a 3323 72d9 25cf
000000f0: e974 13e0 1e75 bc48 cddd e90c d07f f6c4

model_1/block_4_project/Conv2D i1 [16, 1, 1, 96]
29 29 7 16 -30 -70 -24 -13
-13 -71 -2 -1 57 -59 46 30
-82 -34 38 10 70 11 -67 4
-8 64 127 65 17 81 47 -41
8 -5 5 -30 34 28 -9 -5
104 26 10 -21 -18 -14 0 -59
32 -34 91 -8 -73 10 35 25
-13 -40 0 12 -17 42 -82 -4
13 0 67 22 -5 -27 18 20
3 40 4 31 69 -21 49 24
-18 37 38 27 -50 2 -9 70
22 3 -78 -38 25 17 107 60
16 34 -48 -7 -10 -48 92 -72
-52 -29 -57 -30 -23 -43 -10 -37
-26 -41 -29 -9 -16 -80 105 -10
-3 9 1 53 -54 18 -26 19
-28 30 17 0 -17 59 -51 88
48 4 9 -50 55 -43 -5 47
-73 4 55 -87 -32 38 63 61
23 37 -74 24 -31 9 -3 -15
46 38 90 20 -45 -127 10 2
36 56 -12 25 -53 -21 93 -29
43 -7 47 -45 -26 -49 -8 11
-12 -41 34 -14 67 -56 -34 62
6 -13 12 -26 63 50 -53 38
-61 51 14 -35 41 -12 18 18
20 -15 -127 -10 -22 -56 -7 -11
4 -22 -41 19 -29 -31 -29 68
-25 -37 -2 13 -46 19 -23 -23
69 25 -5 55 6 49 -1 -12
-94 5 -18 11 -34 54 3 -69
43 13 50 34 -32 -14 -22 56
00000000: 1d1d 0710 e2ba e8f3 f3b9 feff 39c5 2e1e
00000010: aede 260a 460b bd04 f840 7f41 1151 2fd7
00000020: 08fb 05e2 221c f7fb 681a 0aeb eef2 00c5
00000030: 20de 5bf8 b70a 2319 f3d8 000c ef2a aefc
00000040: 0d00 4316 fbe5 1214 0328 041f 45eb 3118
00000050: ee25 261b ce02 f746 1603 b2da 1911 6b3c
00000060: 1022 d0f9 f6d0 5cb8 cce3 c7e2 e9d5 f6db
00000070: e6d7 e3f7 f0b0 69f6 fd09 0135 ca12 e613
00000080: e41e 1100 ef3b cd58 3004 09ce 37d5 fb2f
00000090: b704 37a9 e026 3f3d 1725 b618 e109 fdf1
000000a0: 2e26 5a14 d381 0a02 2438 f419 cbeb 5de3
000000b0: 2bf9 2fd3 e6cf f80b f4d7 22f2 43c8 de3e
000000c0: 06f3 0ce6 3f32 cb26 c333 0edd 29f4 1212
000000d0: 14f1 81f6 eac8 f9f5 04ea d713 e3e1 e344
000000e0: e7db fe0d d213 e9e9 4519 fb37 0631 fff4
000000f0: a205 ee0b de36 03bb 2b0d 3222 e0f2 ea38

model_1/block_4_depthwise_BN/FusedBatchNormV3;model_1/block_4_depthwise/depthwise;model_1/block_6_expand/Conv2D i1 [1, 3, 3, 96]
-63 -10 -13 -39 106 -17 29 0
-17 1 -9 -36 14 10 -1 -5
-20 8 -14 -13 -17 13 4 84
-4 -5 -29 -13 25 22 22 12
29 2 0 -22 -2 -61 -46 -9
5 -5 31 -45 -30 32 -52 5
-52 -3 -2 50 -56 6 27 -33
16 -10 15 -33 -7 -2 0 -71
-14 -20 -45 -45 -33 35 -1 -3
53 3 -13 -3 -23 48 127 -40
-127 8 -87 -24 -32 -31 6 23
-51 -7 25 -49 1 63 13 21
-49 49 27 -65 -39 -5 126 -51
-5 -11 -34 9 14 15 -80 85
-14 70 62 -29 -16 127 85 125
23 2 66 78 127 55 127 -18
-111 -12 -86 -24 -22 -45 127 -64
-23 -127 -24 -43 40 -29 -33 17
17 -10 27 127 -70 63 -92 -16
-77 -1 -2 15 -25 -121 -124 -54
-48 -4 -8 -87 -21 37 -57 102
-127 -24 4 -28 -117 -87 1 -127
-85 1 53 -57 97 58 -57 44
-114 6 43 3 17 127 -39 -64
-50 11 -13 -29 61 -11 52 -27
-24 17 -12 14 6 9 -4 -5
-15 8 -15 -18 -5 -4 33 51
-7 -17 9 -27 17 30 18 17
15 2 -10 57 2 -62 -25 19
4 -5 9 -52 -27 -32 -39 -14
-28 -17 6 40 24 3 2 -24
73 -22 15 -44 -9 2 -48 -31
00000000: c1f6 f3d9 6aef 1d00 ef01 f7dc 0e0a fffb
00000010: ec08 f2f3 ef0d 0454 fcfb e3f3 1916 160c
00000020: 1d02 00ea fec3 d2f7 05fb 1fd3 e220 cc05
00000030: ccfd fe32 c806 1bdf 10f6 0fdf f9fe 00b9
00000040: f2ec d3d3 df23 fffd 3503 f3fd e930 7fd8
00000050: 8108 a9e8 e0e1 0617 cdf9 19cf 013f 0d15
00000060: cf31 1bbf d9fb 7ecd fbf5 de09 0e0f b055
00000070: f246 3ee3 f07f 557d 1702 424e 7f37 7fee
00000080: 91f4 aae8 ead3 7fc0 e981 e8d5 28e3 df11
00000090: 11f6 1b7f ba3f a4f0 b3ff fe0f e787 84ca
000000a0: d0fc f8a9 eb25 c766 81e8 04e4 8ba9 0181
000000b0: ab01 35c7 613a c72c 8e06 2b03 117f d9c0
000000c0: ce0b f3e3 3df5 34e5 e811 f40e 0609 fcfb
000000d0: f108 f1ee fbfc 2133 f9ef 09e5 111e 1211
000000e0: 0f02 f639 02c2 e713 04fb 09cc e5e0 d9f2
000000f0: e4ef 0628 1803 02e8 49ea 0fd4 f702 d0e1

model_1/block_4_expand/Conv2D i1 [96, 1, 1, 16]
51 4 -16 44 -126 -6 127 42
46 91 -50 45 35 -18 3 76
-21 15 -101 19 127 98 22 19
-40 9 -41 52 -60 115 -25 -30
-45 87 84 6 69 87 10 41
38 -2 46 -19 57 -127 -1 19
127 -30 30 13 23 18 -18 14
32 47 -49 -14 -39 48 -14 56
-101 -39 20 28 -114 -11 -110 -25
-13 44 -3 -43 -7 48 -40 127
-101 8 35 -6 127 30 18 10
-37 21 -26 10 -75 77 -89 -38
-127 24 -29 25 -14 -71 58 16
14 -31 -43 39 0 -1 -36 13
-23 127 52 -59 64 62 105 22
53 -7 17 58 64 35 -38 17
-26 -20 -65 48 -44 87 -50 -76
38 -34 78 62 127 46 -94 0
-21 -127 -26 86 -40 -63 -4 61
40 42 9 55 -78 10 -1 -29
-36 -65 -91 51 -101 113 82 -100
17 -71 35 -43 45 127 -80 69
-56 -86 -29 36 -15 73 36 14
31 17 53 -83 6 127 -104 122
-12 -121 -85 90 -101 -127 39 73
76 59 -58 86 7 -98 -40 -29
-66 -16 -47 -8 -4 8 36 13
-12 127 -14 -22 34 31 5 -13
-123 -34 -51 -58 -18 95 -19 -121
127 -75 72 -4 110 -72 -117 -101
-19 -127 102 -46 -63 -44 18 67
6 -62 -92 -43 85 -30 -20 -38
00000000: 3304 f02c 82fa 7f2a 2e5b ce2d 23ee 034c
00000010: eb0f 9b13 7f62 1613 d809 d734 c473 e7e2
00000020: d357 5406 4557 0a29 26fe 2eed 3981 ff13
00000030: 7fe2 1e0d 1712 ee0e 202f cff2 d930 f238
00000040: 9bd9 141c 8ef5 92e7 f32c fdd5 f930 d87f
00000050: 9b08 23fa 7f1e 120a db15 e60a b54d a7da
00000060: 8118 e319 f2b9 3a10 0ee1 d527 00ff dc0d
00000070: e97f 34c5 403e 6916 35f9 113a 4023 da11
00000080: e6ec bf30 d457 ceb4 26de 4e3e 7f2e a200
00000090: eb81 e656 d8c1 fc3d 282a 0937 b20a ffe3
000000a0: dcbf a533 9b71 529c 11b9 23d5 2d7f b045
000000b0: c8aa e324 f149 240e 1f11 35ad 067f 987a
000000c0: f487 ab5a 9b81 2749 4c3b c656 079e d8e3
000000d0: bef0 d1f8 fc08 240d f47f f2ea 221f 05f3
000000e0: 85de cdc6 ee5f ed87 7fb5 48fc 6eb8 8b9b
000000f0: ed81 66d2 c1d4 1243 06c2 a4d5 55e2 ecda

model_1/block_3_project/Conv2D i1 [16, 1, 1, 48]
28 36 29 -35 73 66 -39 48
-6 116 1 49 -36 41 -12 50
26 83 42 -69 -76 84 -8 52
71 49 38 49 -47 -49 -4 92
-34 14 -72 55 53 -127 -40 13
18 -31 61 0 -9 -55 -67 -13
-48 7 -78 -44 7 93 -58 22
-10 -30 -46 32 55 -17 -29 -22
-27 -31 -1 25 -68 48 -99 -44
-48 -36 51 66 -28 -28 40 -48
14 -55 -31 53 15 -58 127 -35
-19 32 -44 -17 26 46 30 23
1 7 60 -39 -19 -82 13 31
108 75 -65 10 118 -53 127 84
-69 -25 -30 35 88 -81 -36 -100
22 -40 42 -74 36 38 -53 8
39 -22 63 49 -71 7 4 -21
33 33 66 -17 20 -93 104 -51
42 1 -21 -31 33 108 8 -14
38 -47 19 -17 -40 4 6 44
-42 -74 32 -117 -4 -5 -24 -16
-39 84 127 58 -8 -45 17 48
55 -36 98 37 -41 -63 1 43
21 9 -17 6 20 22 -11 -19
99 -7 0 -46 87 84 60 9
59 -20 -96 30 38 -25 25 -12
-84 -108 -20 -88 -22 27 -38 -34
-85 124 -106 127 -62 -46 30 70
46 -41 7 -36 -5 15 -21 18
-44 0 2 42 -50 95 -29 -61
2 -8 -53 6 -12 59 19 -26
58 53 38 90 50 -20 32 -6
00000000: 1c24 1ddd 4942 d930 fa74 0131 dc29 f432
00000010: 1a53 2abb b454 f834 4731 2631 d1cf fc5c
00000020: de0e b837 3581 d80d 12e1 3d00 f7c9 bdf3
00000030: d007 b2d4 075d c616 f6e2 d220 37ef e3ea
00000040: e5e1 ff19 bc30 9dd4 d0dc 3342 e4e4 28d0
00000050: 0ec9 e135 0fc6 7fdd ed20 d4ef 1a2e 1e17
00000060: 0107 3cd9 edae 0d1f 6c4b bf0a 76cb 7f54
00000070: bbe7 e223 58af dc9c 16d8 2ab6 2426 cb08
00000080: 27ea 3f31 b907 04eb 2121 42ef 14a3 68cd
00000090: 2a01 ebe1 216c 08f2 26d1 13ef d804 062c
000000a0: d6b6 208b fcfb e8f0 d954 7f3a f8d3 1130
000000b0: 37dc 6225 d7c1 012b 1509 ef06 1416 f5ed
000000c0: 63f9 00d2 5754 3c09 3bec a01e 26e7 19f4
000000d0: ac94 eca8 ea1b dade ab7c 967f c2d2 1e46
000000e0: 2ed7 07dc fb0f eb12 d400 022a ce5f e3c3
000000f0: 02f8 cb06 f43b 13e6 3a35 265a 32ec 20fa

model_1/block_3_depthwise_BN/FusedBatchNormV3;model_1/block_3_depthwise/depthwise i1 [1, 3, 3, 48]
-99 50 -127 107 -118 93 -42 83
-78 -91 84 -47 48 -100 -46 -68
75 86 97 -112 110 -127 85 -90
-113 -48 63 127 -96 -38 -91 115
89 -95 72 -97 -74 -108 85 -36
-15 -85 100 -94 105 55 -84 -68
-109 70 -81 127 -71 125 -28 64
-83 -118 124 -84 80 -119 -70 -89
88 114 127 -127 127 -107 109 -127
-116 -92 69 124 40 -77 -127 127
122 -127 103 -121 -79 -124 104 -35
-106 115 127 -65 -38 113 -109 -127
-77 70 -2 37 -21 58 -29 51
-44 -40 55 -36 37 -70 -35 -13
26 51 70 -58 45 -57 37 -37
-108 -37 31 48 108 -9 -62 104
34 -88 56 -30 -28 -52 47 -28
-127 -35 55 -45 -80 90 -38 -101
-109 91 -61 116 -66 127 -126 104
-108 -93 88 -84 96 -127 -73 -91
104 104 -45 -85 98 -93 101 -61
-114 -69 97 111 -127 -86 -83 95
119 39 106 -112 -105 -127 99 -67
-126 -99 123 -109 127 56 -112 -75
-127 127 -122 122 -127 118 -127 127
-127 -127 127 -127 127 -107 -127 -127
127 127 -65 -100 101 -110 127 -101
-114 -127 127 120 26 -127 -107 119
127 44 127 -127 -127 -113 127 -127
-126 127 125 -90 -66 127 -127 -117
-84 111 -102 52 -92 50 -87 67
-46 -32 63 -67 66 -32 -59 -38
00000000: 9d32 816b 8a5d d653 b2a5 54d1 309c d2bc
00000010: 4b56 6190 6e81 55a6 8fd0 3f7f a0da a573
00000020: 59a1 489f b694 55dc f1ab 64a2 6937 acbc
00000030: 9346 af7f b97d e440 ad8a 7cac 5089 baa7
00000040: 5872 7f81 7f95 6d81 8ca4 457c 28b3 817f
00000050: 7a81 6787 b184 68dd 9673 7fbf da71 9381
00000060: b346 fe25 eb3a e333 d4d8 37dc 25ba ddf3
00000070: 1a33 46c6 2dc7 25db 94db 1f30 6cf7 c268
00000080: 22a8 38e2 e4cc 2fe4 81dd 37d3 b05a da9b
00000090: 935b c374 be7f 8268 94a3 58ac 6081 b7a5
000000a0: 6868 d3ab 62a3 65c3 8ebb 616f 81aa ad5f
000000b0: 7727 6a90 9781 63bd 829d 7b93 7f38 90b5
000000c0: 817f 867a 8176 817f 8181 7f81 7f95 8181
000000d0: 7f7f bf9c 6592 7f9b 8e81 7f78 1a81 9577
000000e0: 7f2c 7f81 818f 7f81 827f 7da6 be7f 818b
000000f0: ac6f 9a34 a432 a943 d2e0 3fbd 42e0 c5da

model_1/block_3_expand/Conv2D i1 [48, 1, 1, 8]
80 27 127 -45 73 116 -74 -60
8 -90 -127 4 51 23 37 -1
-127 -10 -50 -25 51 25 -62 -45
29 58 127 -73 -4 -87 -1 -6
-127 18 -46 -29 54 13 -39 -50
-83 15 -59 -6 3 38 -83 -127
-35 -127 -118 44 89 10 -5 37
-60 -127 -90 -76 -66 -63 22 87
78 34 -3 -15 97 -69 -127 5
-31 51 -52 86 -61 -42 127 -31
-27 127 35 61 116 -32 -10 58
-70 -35 -22 -5 -80 104 127 0
65 31 -127 31 -13 -34 -60 -16
61 -34 -63 7 12 -127 -29 -18
15 -74 93 16 127 -125 -66 15
-38 -45 -7 127 63 81 -75 24
118 36 -34 21 73 -123 -127 -20
54 127 56 73 46 65 25 -83
33 -6 14 -14 127 -3 40 -28
17 123 21 18 -127 11 22 -38
-44 23 71 -127 13 17 -18 100
-32 90 51 -127 14 23 -27 120
-77 -63 -92 17 -127 119 115 -18
102 30 -127 15 22 -46 -72 -17
-60 51 10 4 -19 79 -127 107
-102 -59 -127 8 -52 -64 70 96
41 -9 -35 -37 109 -15 127 -42
127 -79 27 100 0 33 -17 96
51 57 49 -10 127 -68 52 -25
-9 -10 -33 -45 -72 19 127 -37
36 -127 -45 -69 -105 -8 10 -49
9 33 -9 -8 -127 6 -33 -10
00000000: 501b 7fd3 4974 b6c4 08a6 8104 3317 25ff
00000010: 81f6 cee7 3319 c2d3 1d3a 7fb7 fca9 fffa
00000020: 8112 d2e3 360d d9ce ad0f c5fa 0326 ad81
00000030: dd81 8a2c 590a fb25 c481 a6b4 bec1 1657
00000040: 4e22 fdf1 61bb 8105 e133 cc56 c3d6 7fe1
00000050: e57f 233d 74e0 f63a badd eafb b068 7f00
00000060: 411f 811f f3de c4f0 3dde c107 0c81 e3ee
00000070: 0fb6 5d10 7f83 be0f dad3 f97f 3f51 b518
00000080: 7624 de15 4985 81ec 367f 3849 2e41 19ad
00000090: 21fa 0ef2 7ffd 28e4 117b 1512 810b 16da
000000a0: d417 4781 0d11 ee64 e05a 3381 0e17 e578
000000b0: b3c1 a411 8177 73ee 661e 810f 16d2 b8ef
000000c0: c433 0a04 ed4f 816b 9ac5 8108 ccc0 4660
000000d0: 29f7 dddb 6df1 7fd6 7fb1 1b64 0021 ef60
000000e0: 3339 31f6 7fbc 34e7 f7f6 dfd3 b813 7fdb
000000f0: 2481 d3bb 97f8 0acf 0921 f7f8 8106 dff6

model_1/block_2_project/Conv2D i1 [8, 1, 1, 48]
-50 -48 -17 -63 8 -12 80 94
-98 -80 -40 12 -47 -2 -54 32
-77 12 16 127 61 -34 16 92
69 81 23 8 -89 -66 -73 -49
-61 97 26 -49 27 -29 87 -2
35 16 4 -98 35 -29 -35 -87
-6 65 -17 -37 -70 61 -24 -49
-35 83 -28 9 48 45 -42 2
-16 -115 75 -45 127 18 -62 25
67 6 -95 65 41 -3 69 44
-40 -15 2 -12 5 113 -21 -27
72 46 -3 19 112 12 -36 69
-26 -34 119 -7 84 -47 -9 15
-33 10 -11 44 6 -45 -46 -127
-56 -99 -19 21 -101 27 -38 -38
-45 15 -4 -57 -46 13 -37 -15
-9 -1 23 -1 27 -27 -53 9
30 -33 36 -50 -38 -54 -70 -51
48 11 63 15 22 -39 36 77
-51 -22 46 -36 -58 55 -13 51
72 35 -45 32 -104 -73 127 6
14 15 -58 -24 -50 69 118 -64
11 -113 -23 52 -6 -74 -17 75
-70 -55 62 7 -100 -72 63 -3
22 -14 69 -39 9 -8 -12 -6
-53 -5 -22 7 45 -74 34 -87
34 44 -5 -38 10 33 11 4
-1 4 53 -20 28 25 -127 -9
-28 -17 7 17 41 -2 34 11
-40 -17 -66 32 -16 -94 1 16
31 -55 62 27 26 12 29 -15
-77 -5 -36 19 29 11 13 -49
00000000: ced0 efc1 08f4 505e 9eb0 d80c d1fe ca20
00000010: b30c 107f 3dde 105c 4551 1708 a7be b7cf
00000020: c361 1acf 1be3 57fe 2310 049e 23e3 dda9
00000030: fa41 efdb ba3d e8cf dd53 e409 302d d602
00000040: f08d 4bd3 7f12 c219 4306 a141 29fd 452c
00000050: d8f1 02f4 0571 ebe5 482e fd13 700c dc45
00000060: e6de 77f9 54d1 f70f df0a f52c 06d3 d281
00000070: c89d ed15 9b1b dada d30f fcc7 d20d dbf1
00000080: f7ff 17ff 1be5 cb09 1edf 24ce daca bacd
00000090: 300b 3f0f 16d9 244d cdea 2edc c637 f333
000000a0: 4823 d320 98b7 7f06 0e0f c6e8 ce45 76c0
000000b0: 0b8f e934 fab6 ef4b bac9 3e07 9cb8 3ffd
000000c0: 16f2 45d9 09f8 f4fa cbfb ea07 2db6 22a9
000000d0: 222c fbda 0a21 0b04 ff04 35ec 1c19 81f7
000000e0: e4ef 0711 29fe 220b d8ef be20 f0a2 0110
000000f0: 1fc9 3e1b 1a0c 1df1 b3fb dc13 1d0b 0dcf

model_1/block_2_depthwise_BN/FusedBatchNormV3;model_1/block_2_depthwise/depthwise;model_1/block_3_depthwise/depthwise i1 [1, 3, 3, 48]
10 -41 8 10 -13 -69 -42 63
-29 -3 -17 2 42 -3 -7 9
102 8 27 16 -2 -20 -65 19
-13 -18 -1 -22 -67 61 -19 -127
61 -18 -56 -57 -13 -25 3 -16
-11 46 1 -14 -19 78 127 -18
-127 -106 -23 127 -58 76 -104 127
29 20 -4 -9 43 23 1 -36
-23 46 28 15 18 127 19 127
123 -36 -40 47 75 -127 -11 -59
72 -16 -32 -127 22 25 -63 -50
-126 5 -99 -113 34 67 47 119
-19 -15 11 15 -18 31 33 72
7 -25 3 0 -26 2 5 10
-59 25 -66 -25 3 -28 127 18
-57 -3 17 18 19 39 11 -11
4 -21 -38 91 4 10 4 96
31 -10 19 -27 -16 39 -28 -21
-10 -13 -29 3 35 -76 127 -74
-5 6 25 30 127 24 4 -29
-24 -28 29 50 64 -65 54 10
-64 127 -80 -12 127 -98 39 -125
-32 -8 -82 13 8 -68 -47 18
127 127 8 -127 -70 -54 -16 83
98 -127 127 2 127 73 -72 -64
31 127 127 -127 -90 127 127 127
127 127 124 127 127 120 12 5
127 -98 -127 127 43 123 127 33
-127 127 127 119 -127 127 -127 -127
45 54 -127 -24 127 -127 -34 75
23 36 -40 -2 -44 127 -122 105
94 -60 37 64 -37 16 20 -63
00000000: 0ad7 080a f3bb d63f e3fd ef02 2afd f909
00000010: 6608 1b10 feec bf13 f3ee ffea bd3d ed81
00000020: 3dee c8c7 f3e7 03f0 f52e 01f2 ed4e 7fee
00000030: 8196 e97f c64c 987f 1d14 fcf7 2b17 01dc
00000040: e92e 1c0f 127f 137f 7bdc d82f 4b81 f5c5
00000050: 48f0 e081 1619 c1ce 8205 9d8f 2243 2f77
00000060: edf1 0b0f ee1f 2148 07e7 0300 e602 050a
00000070: c519 bee7 03e4 7f12 c7fd 1112 1327 0bf5
00000080: 04eb da5b 040a 0460 1ff6 13e5 f027 e4eb
00000090: f6f3 e303 23b4 7fb6 fb06 191e 7f18 04e3
000000a0: e8e4 1d32 40bf 360a c07f b0f4 7f9e 2783
000000b0: e0f8 ae0d 08bc d112 7f7f 0881 baca f053
000000c0: 6281 7f02 7f49 b8c0 1f7f 7f81 a67f 7f7f
000000d0: 7f7f 7c7f 7f78 0c05 7f9e 817f 2b7b 7f21
000000e0: 817f 7f77 817f 8181 2d36 81e8 7f81 de4b
000000f0: 1724 d8fe d47f 8669 5ec4 2540 db10 14c1

model_1/block_2_expand/Conv2D i1 [48, 1, 1, 8]
53 127 -67 -83 17 87 14 59
59 -79 53 -127 -68 81 -105 -47
-38 127 115 53 104 4 49 13
96 35 -111 58 -12 -115 -127 -31
-56 38 16 -61 -37 107 127 47
22 87 -127 -76 53 89 32 -32
-14 127 78 63 85 6 12 -100
127 -2 -23 28 21 16 101 30
69 127 54 91 114 80 96 -86
53 122 -127 -88 13 102 12 76
-66 -51 28 -55 1 -28 -43 127
12 -110 -127 -16 20 -8 43 -15
-23 -120 -109 -27 -127 43 -52 39
-7 7 -90 96 -127 -24 2 -22
-60 -50 -127 -8 35 -2 -14 -63
21 -110 -127 11 -104 -19 -28 -10
127 -72 -15 59 -72 27 37 101
-25 111 127 -25 -51 -10 -22 -30
16 -127 53 62 -3 -55 53 -72
127 -45 -73 29 -104 3 39 97
-23 -127 77 78 -18 -91 -4 -77
4 -33 -11 -16 127 -16 32 26
-127 17 -69 43 54 48 -87 -104
-85 -40 59 14 -118 127 123 -66
-36 76 0 -22 -46 127 124 0
-56 -116 -127 -61 -47 -14 -22 -55
-2 71 -23 127 -81 29 -53 -15
17 -127 29 72 16 -53 8 -122
8 127 69 70 109 -15 22 -75
90 36 -19 -4 104 -127 -124 46
26 -9 32 -127 17 -23 18 -32
38 -39 8 61 -12 27 10 127
00000000: 357f bdad 1157 0e3b 3bb1 3581 bc51 97d1
00000010: da7f 7335 6804 310d 6023 913a f48d 81e1
00000020: c826 10c3 db6b 7f2f 1657 81b4 3559 20e0
00000030: f27f 4e3f 5506 0c9c 7ffe e91c 1510 651e
00000040: 457f 365b 7250 60aa 357a 81a8 0d66 0c4c
00000050: becd 1cc9 01e4 d57f 0c92 81f0 14f8 2bf1
00000060: e988 93e5 812b cc27 f907 a660 81e8 02ea
00000070: c4ce 81f8 23fe f2c1 1592 810b 98ed e4f6
00000080: 7fb8 f13b b81b 2565 e76f 7fe7 cdf6 eae2
00000090: 1081 353e fdc9 35b8 7fd3 b71d 9803 2761
000000a0: e981 4d4e eea5 fcb3 04df f5f0 7ff0 201a
000000b0: 8111 bb2b 3630 a998 abd8 3b0e 8a7f 7bbe
000000c0: dc4c 00ea d27f 7c00 c88c 81c3 d1f2 eac9
000000d0: fe47 e97f af1d cbf1 1181 1d48 10cb 0886
000000e0: 087f 4546 6df1 16b5 5a24 edfc 6881 842e
000000f0: 1af7 2081 11e9 12e0 26d9 083d f41b 0a7f

model_1/block_1_project/Conv2D i1 [8, 1, 1, 48]
-43 0 33 9 -38 -13 12 12
-37 -5 -57 -56 -28 -61 -9 -31
45 -38 37 43 -11 32 -36 18
4 -36 52 -13 -1 -20 16 10
83 40 41 -127 18 -5 -18 -33
5 -21 41 44 34 3 26 0
-1 40 66 -21 -10 47 -56 -31
2 22 -21 -93 10 93 -19 59
-22 25 -23 -56 8 -79 -27 21
-76 -15 -6 -114 -29 -19 34 -67
47 75 -47 6 127 -34 3 51
-34 41 -86 -33 118 -19 -37 -21
1 -19 -56 20 2 44 21 0
-6 40 -7 24 66 -78 12 -56
30 -80 22 32 -24 49 -6 21
-18 54 -20 -63 14 2 18 -71
-43 -85 26 -24 103 18 -10 -52
-3 31 75 27 127 12 17 27
-15 26 -70 44 14 -37 -66 -102
10 -20 -35 2 6 26 33 83
-9 14 -36 31 10 -96 32 -61
-70 -7 127 -8 -45 6 -67 12
0 -80 15 -13 -20 -35 -21 96
-49 -37 0 16 43 3 -37 40
-24 -44 -4 12 32 -27 -14 -8
21 -36 55 -78 10 31 6 7
-16 -24 14 -17 -1 -51 6 -18
15 -9 42 46 30 23 -14 27
-6 -5 1 0 -65 86 34 -25
25 -16 -16 -23 -77 12 127 10
39 -20 -2 21 32 -45 32 -127
28 -31 -16 120 -80 72 18 -66
00000000: d500 2109 daf3 0c0c dbfb c7c8 e4c3 f7e1
00000010: 2dda 252b f520 dc12 04dc 34f3 ffec 100a
00000020: 5328 2981 12fb eedf 05eb 292c 2203 1a00
00000030: ff28 42eb f62f c8e1 0216 eba3 0a5d ed3b
00000040: ea19 e9c8 08b1 e515 b4f1 fa8e e3ed 22bd
00000050: 2f4b d106 7fde 0333 de29 aadf 76ed dbeb
00000060: 01ed c814 022c 1500 fa28 f918 42b2 0cc8
00000070: 1eb0 1620 e831 fa15 ee36 ecc1 0e02 12b9
00000080: d5ab 1ae8 6712 f6cc fd1f 4b1b 7f0c 111b
00000090: f11a ba2c 0edb be9a 0aec dd02 061a 2153
000000a0: f70e dc1f 0aa0 20c3 baf9 7ff8 d306 bd0c
000000b0: 00b0 0ff3 ecdd eb60 cfdb 0010 2b03 db28
000000c0: e8d4 fc0c 20e5 f2f8 15dc 37b2 0a1f 0607
000000d0: f0e8 0eef ffcd 06ee 0ff7 2a2e 1e17 f21b
000000e0: fafb 0100 bf56 22e7 19f0 f0e9 b30c 7f0a
000000f0: 27ec fe15 20d3 2081 1ce1 f078 b048 12be

model_1/block_1_depthwise_BN/FusedBatchNormV3;model_1/block_1_depthwise/depthwise;model_1/block_3_depthwise/depthwise i1 [1, 3, 3, 48]
-45 -79 -25 -27 127 -57 66 -66
-83 -74 -24 -54 118 34 48 -127
55 -25 -4 -39 -115 89 -20 19
-14 80 70 -41 89 -79 10 -49
-126 -86 42 71 30 76 113 -74
-126 -22 39 61 43 -127 98 77
-63 -114 -76 53 -95 105 59 -66
-62 48 77 -120 127 91 78 -80
-81 -93 32 -56 -127 117 -82 116
-74 117 99 -127 100 -53 9 -117
-42 -76 79 127 101 124 127 -62
-127 -82 74 84 83 100 100 73
-2 -49 -77 99 -43 -37 38 -16
103 36 66 -75 25 61 -47 8
-86 -26 34 -37 -76 -21 -82 -17
-71 53 30 -80 39 58 115 -59
17 12 -2 47 90 72 50 2
-28 89 68 27 48 25 22 -120
-127 -94 -24 -76 -96 -84 107 -115
-127 -127 76 -77 104 46 -118 -74
127 -127 -62 -86 -79 127 -39 19
-17 83 95 -53 -103 -80 5 -50
-93 -127 -127 67 42 94 3 -89
62 -37 95 116 76 103 123 -127
-126 -127 -127 -101 -31 127 127 -127
99 75 127 -127 104 127 56 -112
63 -96 -127 -127 -121 91 -127 127
-120 127 127 -125 -127 127 -18 -127
-127 -104 56 112 127 127 -18 -127
99 -105 127 127 127 -5 127 113
-33 -78 -120 127 82 -52 49 -30
73 32 21 -60 -10 72 49 -38
00000000: d3b1 e7e5 7fc7 42be adb6 e8ca 7622 3081
00000010: 37e7 fcd9 8d59 ec13 f250 46d7 59b1 0acf
00000020: 82aa 2a47 1e4c 71b6 82ea 273d 2b81 624d
00000030: c18e b435 a169 3bbe c230 4d88 7f5b 4eb0
00000040: afa3 20c8 8175 ae74 b675 6381 64cb 098b
00000050: d6b4 4f7f 657c 7fc2 81ae 4a54 5364 6449
00000060: fecf b363 d5db 26f0 6724 42b5 193d d108
00000070: aae6 22db b4eb aeef b935 1eb0 273a 73c5
00000080: 110c fe2f 5a48 3202 e459 441b 3019 1688
00000090: 81a2 e8b4 a0ac 6b8d 8181 4cb3 682e 8ab6
000000a0: 7f81 c2aa b17f d913 ef53 5fcb 99b0 05ce
000000b0: a381 8143 2a5e 03a7 3edb 5f74 4c67 7b81
000000c0: 8281 819b e17f 7f81 634b 7f81 687f 3890
000000d0: 3fa0 8181 875b 817f 887f 7f83 817f ee81
000000e0: 8198 3870 7f7f ee81 6397 7f7f 7ffb 7f71
000000f0: dfb2 887f 52cc 31e2 4920 15c4 f648 31da

model_1/block_1_expand/Conv2D i1 [48, 1, 1, 8]
-37 21 0 -11 -81 -33 -127 32
84 -90 -57 -51 127 -93 113 22
-96 116 -47 -127 47 -22 -26 36
65 13 81 17 97 108 127 -23
-62 -127 76 1 -53 -122 11 -42
127 -16 72 72 -72 -5 -4 -9
26 34 127 -18 44 -27 -40 33
27 11 -127 -26 -39 103 90 -67
-4 127 -31 18 58 101 42 55
-7 127 -60 85 17 -92 48 116
6 -127 -6 -26 -72 -105 -46 -76
-127 -75 98 53 -7 -60 96 65
-33 42 -127 83 40 -51 -68 106
90 -127 91 75 8 34 37 -56
-30 94 -25 -127 -27 -108 -32 -60
32 104 35 -9 30 -62 96 -127
-122 -127 -66 92 -64 21 -19 79
-28 -114 -127 93 -61 86 -53 84
-103 -77 -43 82 -12 63 -17 127
60 -123 103 -127 22 -60 36 -35
-9 72 27 22 31 127 67 -8
31 118 53 -32 43 -62 103 -127
20 9 96 20 -9 127 25 -31
-94 -60 32 -67 88 85 -55 -127
-102 -83 43 -79 104 111 -42 -127
127 10 -58 -12 13 35 -62 -8
-125 -35 -127 -23 -53 -32 25 -13
80 36 -6 -54 -127 -27 91 88
-127 -82 3 45 -78 -97 -11 7
127 99 41 -123 24 -2 -56 -97
-88 -59 39 -65 76 84 -44 -127
46 46 -8 127 11 -72 11 16
00000000: db15 00f5 afdf 8120 54a6 c7cd 7fa3 7116
00000010: a074 d181 2fea e624 410d 5111 616c 7fe9
00000020: c281 4c01 cb86 0bd6 7ff0 4848 b8fb fcf7
00000030: 1a22 7fee 2ce5 d821 1b0b 81e6 d967 5abd
00000040: fc7f e112 3a65 2a37 f97f c455 11a4 3074
00000050: 0681 fae6 b897 d2b4 81b5 6235 f9c4 6041
00000060: df2a 8153 28cd bc6a 5a81 5b4b 0822 25c8
00000070: e25e e781 e594 e0c4 2068 23f7 1ec2 6081
00000080: 8681 be5c c015 ed4f e48e 815d c356 cb54
00000090: 99b3 d552 f43f ef7f 3c85 6781 16c4 24dd
000000a0: f748 1b16 1f7f 43f8 1f76 35e0 2bc2 6781
000000b0: 1409 6014 f77f 19e1 a2c4 20bd 5855 c981
000000c0: 9aad 2bb1 686f d681 7f0a c6f4 0d23 c2f8
000000d0: 83dd 81e9 cbe0 19f3 5024 faca 81e5 5b58
000000e0: 81ae 032d b29f f507 7f63 2985 18fe c89f
000000f0: a8c5 27bf 4c54 d481 2e2e f87f 0bb8 0b10

model_1/expanded_conv_project/Conv2D i1 [8, 1, 1, 16]
-11 -16 -19 -73 -26 -34 22 -20
39 8 -30 -3 115 127 -21 -105
127 -60 -41 13 -47 74 -73 -44
-36 83 -33 -50 -5 1 -62 -17
-38 -101 46 37 47 -56 -84 -22
33 -91 27 -127 46 -25 -75 24
35 12 21 15 -12 74 -48 -21
127 51 7 17 1 -12 17 22
-94 -42 -25 -127 -14 36 53 -116
32 -26 -42 -44 -119 28 -42 -22
89 51 69 -20 50 -43 -127 -118
-17 -72 64 47 -56 50 59 -47
105 40 -126 -75 27 -69 -1 -91
-39 24 -127 95 90 -90 9 72
-127 -3 92 -30 -62 6 1 -59
-51 64 86 -30 56 -25 31 25
00000000: f5f0 edb7 e6de 16ec 2708 e2fd 737f eb97
00000010: 7fc4 d70d d14a b7d4 dc53 dfce fb01 c2ef
00000020: da9b 2e25 2fc8 acea 21a5 1b81 2ee7 b518
00000030: 230c 150f f44a d0eb 7f33 0711 01f4 1116
00000040: a2d6 e781 f224 358c 20e6 d6d4 891c d6ea
00000050: 5933 45ec 32d5 818a efb8 402f c832 3bd1
00000060: 6928 82b5 1bbb ffa5 d918 815f 5aa6 0948
00000070: 81fd 5ce2 c206 01c5 cd40 56e2 38e7 1f19

model_1/expanded_conv_depthwise_BN/FusedBatchNormV3;model_1/expanded_conv_depthwise/depthwise;model_1/block_5_project/Conv2D i1 [1, 3, 3, 16]
0 -8 7 5 -23 12 14 17
-7 -11 -1 -12 0 -4 2 1
2 -3 6 2 9 -1 13 -26
-8 9 -6 95 -11 23 9 1
-4 -1 -5 4 0 -13 -6 11
1 2 -6 -11 1 -2 -3 -1
6 -7 9 2 127 -23 -127 -21
127 127 1 -9 116 -23 -4 -16
-127 127 127 -1 -90 -90 -12 -102
17 -105 127 127 127 127 127 127
14 0 -9 -2 -11 127 7 -10
0 -12 -5 -7 9 -2 -11 -7
2 -5 2 -19 -21 16 58 7
-17 -8 -5 -3 1 2 -9 -9
22 -9 -1 -127 4 -15 -7 127
-7 1 -2 -15 -2 -56 -6 -33
3 -5 3 -7 1 -4 0 -2
3 2 -6 2 -1 -4 -4 -10
00000000: 00f8 0705 e90c 0e11 f9f5 fff4 00fc 0201
00000010: 02fd 0602 09ff 0de6 f809 fa5f f517 0901
00000020: fcff fb04 00f3 fa0b 0102 faf5 01fe fdff
00000030: 06f9 0902 7fe9 81eb 7f7f 01f7 74e9 fcf0
00000040: 817f 7fff a6a6 f49a 1197 7f7f 7f7f 7f7f
00000050: 0e00 f7fe f57f 07f6 00f4 fbf9 09fe f5f9
00000060: 02fb 02ed eb10 3a07 eff8 fbfd 0102 f7f7
00000070: 16f7 ff81 04f1 f97f f901 fef1 fec8 fadf
00000080: 03fb 03f9 01fc 00fe 0302 fa02 fffc fcf6

model_1/Conv1/Conv2D i1 [16, 3, 3, 1]
-86 -110 -30 66 -37 17 32 127
20 105 -95 -11 -127 104 23 14
-1 -12 -23 -2 -47 36 95 127
-12 -93 -78 119 124 57 1 -22
-15 -101 -127 -44 22 -62 3 27
-127 0 15 -89 -17 -63 25 -2
-127 28 4 -82 23 0 -16 79
127 -49 56 -14 -35 -50 -87 43
33 -10 127 65 -9 17 -8 -33
-21 -30 52 -54 -87 127 -26 -62
96 -18 49 -9 -9 127 -15 -6
78 -12 25 88 12 -37 -127 -29
12 40 18 8 -18 10 65 -93
35 -85 127 -46 -41 49 -10 -127
114 5 -78 79 5 94 36 -2
127 113 0 80 126 52 -30 -27
48 44 99 -127 -16 -70 81 -86
-26 19 -127 -121 20 -38 -92 -18
00000000: aa92 e242 db11 207f 1469 a1f5 8168 170e
00000010: fff4 e9fe d124 5f7f f4a3 b277 7c39 01ea
00000020: f19b 81d4 16c2 031b 8100 0fa7 efc1 19fe
00000030: 811c 04ae 1700 f04f 7fcf 38f2 ddce a92b
00000040: 21f6 7f41 f711 f8df ebe2 34ca a97f e6c2
00000050: 60ee 31f7 f77f f1fa 4ef4 1958 0cdb 81e3
00000060: 0c28 1208 ee0a 41a3 23ab 7fd2 d731 f681
00000070: 7205 b24f 055e 24fe 7f71 0050 7e34 e2e5
00000080: 302c 6381 f0ba 51aa e613 8187 14da a4ee
