v3-0-0-grove-vision-ai-v2-and-xiao-esp32s3/eiv40.tflite (tflite, 56552 bytes, 21 tensors)

model_1/logits/Conv2D i1 [2, 1, 1, 32]
0	0x54	84
1	0xd6	-42
2	0xcc	-52
3	0x5e	94
4	0xe8	-24
5	0xff	-1
6	0x12	18
7	0x66	102
8	0x7f	127
9	0xfb	-5
10	0xd7	-41
11	0xc8	-56
12	0xe7	-25
13	0x3c	60
14	0xf9	-7
15	0x1c	28
16	0x65	101
17	0x9c	-100
18	0xd8	-40
19	0xc5	-59
20	0x61	97
21	0x3e	62
22	0x49	73
23	0xce	-50
24	0xa9	-87
25	0xa0	-96
26	0xf7	-9
27	0x69	105
28	0x9e	-98
29	0xcc	-52
30	0x52	82
31	0x35	53
32	0x2c	44
33	0x3d	61
34	0x3d	61
35	0xcc	-52
36	0xc2	-62
37	0x3f	63
38	0xe7	-25
39	0x08	8
40	0xdf	-33
41	0xf5	-11
42	0x1f	31
43	0x56	86
44	0x5f	95
45	0x23	35
46	0x22	34
47	0x00	0
48	0xde	-34
49	0x02	2
50	0xce	-50
51	0xb4	-76
52	0xbe	-66
53	0x1e	30
54	0x1b	27
55	0x5a	90
56	0x48	72
57	0x41	65
58	0xd7	-41
59	0xfb	-5
60	0x62	98
61	0xa8	-88
62	0x81	-127
63	0xf3	-13

model_1/head/Conv2D i1 [32, 1, 1, 96]
0	0xdb	-37
1	0xce	-50
2	0x61	97
3	0x0b	11
4	0x5d	93
5	0xe0	-32
6	0xa4	-92
7	0x93	-109
8	0x3c	60
9	0x9a	-102
10	0x91	-111
11	0xf1	-15
12	0x39	57
13	0x0a	10
14	0xd3	-45
15	0x34	52
16	0xc1	-63
17	0xdf	-33
18	0xbd	-67
19	0xb7	-73
20	0xba	-70
21	0x95	-107
22	0x02	2
23	0x64	100
24	0x8b	-117
25	0xff	-1
26	0x47	71
27	0xca	-54
28	0x5b	91
29	0xf8	-8
30	0xea	-22
31	0xa4	-92
32	0x55	85
33	0xc6	-58
34	0x9c	-100
35	0x41	65
36	0x8c	-116
37	0xa8	-88
38	0x95	-107
39	0x18	24
40	0x44	68
41	0xa8	-88
42	0x98	-104
43	0x5d	93
44	0x28	40
45	0x93	-109
46	0x66	102
47	0xe4	-28
48	0x11	17
49	0xb5	-75
50	0xe1	-31
51	0x50	80
52	0xb6	-74
53	0xd5	-43
54	0x8e	-114
55	0x5b	91
56	0x1c	28
57	0x48	72
58	0x6d	109
59	0x92	-110
60	0xb8	-72
61	0x45	69
62	0xbd	-67
63	0x2e	46
64	0xe7	-25
65	0x0a	10
66	0x42	66
67	0x5b	91
68	0x24	36
69	0x5b	91
70	0x58	88
71	0x89	-119
72	0x64	100
73	0x8c	-116
74	0x1a	26
75	0x51	81
76	0x94	-108
77	0x0b	11
78	0xc0	-64
79	0x24	36
80	0x2e	46
81	0x15	21
82	0x59	89
83	0xfc	-4
84	0xbf	-65
85	0xd0	-48
86	0xab	-85
87	0x60	96
88	0x19	25
89	0x6f	111
90	0xf0	-16
91	0x81	-127
92	0x0a	10
93	0x31	49
94	0x17	23
95	0x0f	15
96	0xd1	-47
97	0x24	36
98	0xb5	-75
99	0xff	-1
100	0xe2	-30
101	0x4c	76
102	0x23	35
103	0x0f	15
104	0x51	81
105	0xa1	-95
106	0x99	-103
107	0x69	105
108	0x4e	78
109	0xe9	-23
110	0x10	16
111	0x45	69
112	0x6d	109
113	0xd8	-40
114	0x26	38
115	0x7f	127
116	0xd7	-41
117	0xfa	-6
118	0x26	38
119	0x1a	26
120	0x28	40
121	0x15	21
122	0xd8	-40
123	0x69	105
124	0x0b	11
125	0x0d	13
126	0x68	104
127	0xc5	-59
128	0x3d	61
129	0x6f	111
130	0xf0	-16
131	0x21	33
132	0x37	55
133	0x39	57
134	0xfd	-3
135	0xb9	-71
136	0xc0	-64
137	0x0b	11
138	0xeb	-21
139	0xa4	-92
140	0xd4	-44
141	0x2c	44
142	0xe3	-29
143	0xc8	-56
144	0xea	-22
145	0xb4	-76
146	0x7f	127
147	0x43	67
148	0x15	21
149	0x61	97
150	0xac	-84
151	0xcf	-49
152	0x1f	31
153	0x6b	107
154	0x33	51
155	0x56	86
156	0xce	-50
157	0x73	115
158	0xb1	-79
159	0xb6	-74
160	0xd2	-46
161	0x27	39
162	0x4a	74
163	0x27	39
164	0x78	120
165	0x20	32
166	0x19	25
167	0x10	16
168	0x94	-108
169	0x5e	94
170	0xc9	-55
171	0x31	49
172	0x5c	92
173	0xd4	-44
174	0xd6	-42
175	0x4b	75
176	0xaf	-81
177	0x57	87
178	0xd8	-40
179	0x97	-105
180	0x1e	30
181	0x6f	111
182	0xbf	-65
183	0xc3	-61
184	0x54	84
185	0x4f	79
186	0x5e	94
187	0x21	33
188	0x58	88
189	0x68	104
190	0x1d	29
191	0x08	8
192	0x39	57
193	0x28	40
194	0xbb	-69
195	0x60	96
196	0xf1	-15
197	0xbc	-68
198	0x55	85
199	0x67	103
200	0x99	-103
201	0x5f	95
202	0xdb	-37
203	0x76	118
204	0x69	105
205	0xf3	-13
206	0x4a	74
207	0x8f	-113
208	0xc2	-62
209	0xe3	-29
210	0x23	35
211	0x40	64
212	0xa3	-93
213	0xed	-19
214	0x73	115
215	0x14	20
216	0xe7	-25
217	0x53	83
218	0x6b	107
219	0x06	6
220	0xb5	-75
221	0x59	89
222	0x57	87
223	0x67	103
224	0xb9	-71
225	0xf2	-14
226	0x93	-109
227	0x96	-106
228	0xa9	-87
229	0x5d	93
230	0x77	119
231	0xdc	-36
232	0x86	-122
233	0xb5	-75
234	0x0e	14
235	0xfe	-2
236	0x9f	-97
237	0x7f	127
238	0xe7	-25
239	0xac	-84
240	0x66	102
241	0x2b	43
242	0x69	105
243	0xad	-83
244	0xd9	-39
245	0x4f	79
246	0x11	17
247	0x13	19
248	0xbd	-67
249	0x67	103
250	0xb1	-79
251	0x05	5
252	0xf7	-9
253	0x36	54
254	0xcf	-49
255	0x4b	75

model_1/block_6_expand/Conv2D i1 [96, 1, 1, 16]
0	0xf7	-9
1	0x4a	74
2	0xfd	-3
3	0x81	-127
4	0xa6	-90
5	0xce	-50
6	0xe4	-28
7	0xc8	-56
8	0xf4	-12
9	0x0d	13
10	0xf9	-7
11	0x34	52
12	0x1c	28
13	0xcc	-52
14	0x10	16
15	0x50	80
16	0xe1	-31
17	0x1d	29
18	0xc5	-59
19	0xe8	-24
20	0xe8	-24
21	0xf3	-13
22	0x0b	11
23	0xa0	-96
24	0x2d	45
25	0x30	48
26	0xbd	-67
27	0x1a	26
28	0x12	18
29	0x01	1
30	0x26	38
31	0x81	-127
32	0x02	2
33	0x0d	13
34	0xe1	-31
35	0x1c	28
36	0x21	33
37	0x1e	30
38	0xb4	-76
39	0xbd	-67
40	0x7f	127
41	0xce	-50
42	0x12	18
43	0x22	34
44	0xfd	-3
45	0x73	115
46	0xbf	-65
47	0x0f	15
48	0x27	39
49	0xc1	-63
50	0x00	0
51	0xa1	-95
52	0x04	4
53	0xdd	-35
54	0x02	2
55	0x01	1
56	0x6f	111
57	0x04	4
58	0x43	67
59	0x17	23
60	0xee	-18
61	0x20	32
62	0x0c	12
63	0x7f	127
64	0xb5	-75
65	0x31	49
66	0x0c	12
67	0x2a	42
68	0x17	23
69	0xe9	-23
70	0x09	9
71	0x22	34
72	0x03	3
73	0x12	18
74	0x06	6
75	0xd7	-41
76	0x81	-127
77	0xec	-20
78	0xf7	-9
79	0x27	39
80	0x09	9
81	0x3e	62
82	0x74	116
83	0x02	2
84	0x01	1
85	0x41	65
86	0xb3	-77
87	0x4d	77
88	0xd2	-46
89	0x46	70
90	0xe0	-32
91	0xe9	-23
92	0x34	52
93	0xdc	-36
94	0x81	-127
95	0x13	19
96	0x1f	31
97	0xce	-50
98	0x69	105
99	0x81	-127
100	0x2b	43
101	0xfb	-5
102	0xe0	-32
103	0x63	99
104	0xbb	-69
105	0xa7	-89
106	0x30	48
107	0xd4	-44
108	0xfd	-3
109	0x49	73
110	0xed	-19
111	0x56	86
112	0x22	34
113	0x7f	127
114	0xdd	-35
115	0xca	-54
116	0x55	85
117	0x08	8
118	0x0a	10
119	0xd2	-46
120	0x6a	106
121	0x69	105
122	0xcf	-49
123	0x06	6
124	0x17	23
125	0xe2	-30
126	0x41	65
127	0x3b	59
128	0x09	9
129	0xb1	-79
130	0x0d	13
131	0xa6	-90
132	0x25	37
133	0xcd	-51
134	0x0f	15
135	0xaf	-81
136	0x15	21
137	0x36	54
138	0x4d	77
139	0xf8	-8
140	0x0e	14
141	0x7f	127
142	0x3c	60
143	0x31	49
144	0x0e	14
145	0xdd	-35
146	0x00	0
147	0x7f	127
148	0x28	40
149	0xfe	-2
150	0x20	32
151	0xbe	-66
152	0xbe	-66
153	0x67	103
154	0x23	35
155	0xf5	-11
156	0x03	3
157	0xc5	-59
158	0xf0	-16
159	0xf1	-15
160	0xfd	-3
161	0x0d	13
162	0xcc	-52
163	0x81	-127
164	0xf3	-13
165	0xe3	-29
166	0xff	-1
167	0x1f	31
168	0x2b	43
169	0xd6	-42
170	0x0d	13
171	0xe4	-28
172	0xe0	-32
173	0xd2	-46
174	0xf6	-10
175	0x23	35
176	0xf3	-13
177	0x11	17
178	0x18	24
179	0xf7	-9
180	0x60	96
181	0xe0	-32
182	0x5d	93
183	0xca	-54
184	0xae	-82
185	0x2c	44
186	0x05	5
187	0x14	20
188	0xf9	-7
189	0x7f	127
190	0xb8	-72
191	0xe0	-32
192	0x3e	62
193	0x0f	15
194	0x81	-127
195	0x07	7
196	0x15	21
197	0xb9	-71
198	0x25	37
199	0x0c	12
200	0x10	16
201	0x44	68
202	0xbb	-69
203	0xc4	-60
204	0xe5	-27
205	0x58	88
206	0xf4	-12
207	0x31	49
208	0xeb	-21
209	0x01	1
210	0xe3	-29
211	0x11	17
212	0x07	7
213	0x81	-127
214	0x01	1
215	0x12	18
216	0x10	16
217	0xf6	-10
218	0x06	6
219	0xfc	-4
220	0x09	9
221	0xef	-17
222	0x0b	11
223	0x0a	10
224	0x1b	27
225	0xdf	-33
226	0x58	88
227	0xdf	-33
228	0x3d	61
229	0x03	3
230	0x81	-127
231	0x9c	-100
232	0xed	-19
233	0xd2	-46
234	0x1d	29
235	0x0c	12
236	0x03	3
237	0xb9	-71
238	0xe1	-31
239	0xe3	-29
240	0xa0	-96
241	0x13	19
242	0xd7	-41
243	0xc4	-60
244	0xd1	-47
245	0xef	-17
246	0x7f	127
247	0x3f	63
248	0xcc	-52
249	0x27	39
250	0x4a	74
251	0xec	-20
252	0x12	18
253	0x53	83
254	0x58	88
255	0x33	51

model_1/block_5_project/Conv2D i1 [16, 1, 1, 96]
0	0xec	-20
1	0xeb	-21
2	0x05	5
3	0xd8	-40
4	0x10	16
5	0xf8	-8
6	0xd2	-46
7	0x00	0
8	0x0d	13
9	0x11	17
10	0xf5	-11
11	0xff	-1
12	0xff	-1
13	0xf3	-13
14	0xe7	-25
15	0xfb	-5
16	0xf6	-10
17	0xf7	-9
18	0xf7	-9
19	0x02	2
20	0x01	1
21	0xf0	-16
22	0xfc	-4
23	0x03	3
24	0x00	0
25	0x0a	10
26	0xfb	-5
27	0x7f	127
28	0x16	22
29	0xd1	-47
30	0x2f	47
31	0xf4	-12
32	0xf9	-7
33	0xf8	-8
34	0x08	8
35	0x07	7
36	0xf8	-8
37	0x16	22
38	0xcb	-53
39	0xfc	-4
40	0x00	0
41	0x05	5
42	0xfe	-2
43	0x16	22
44	0x11	17
45	0x03	3
46	0x08	8
47	0x02	2
48	0x1b	27
49	0x01	1
50	0xf9	-7
51	0x07	7
52	0x1c	28
53	0xee	-18
54	0xee	-18
55	0x58	88
56	0x02	2
57	0x0a	10
58	0xd8	-40
59	0xdd	-35
60	0xf8	-8
61	0x18	24
62	0x00	0
63	0xe0	-32
64	0xc6	-58
65	0xc2	-62
66	0xe7	-25
67	0x21	33
68	0xf6	-10
69	0x11	17
70	0x05	5
71	0xec	-20
72	0x01	1
73	0xe0	-32
74	0x0b	11
75	0xdd	-35
76	0xd9	-39
77	0x12	18
78	0x04	4
79	0xff	-1
80	0xf4	-12
81	0xe4	-28
82	0x14	20
83	0x12	18
84	0xfb	-5
85	0xe8	-24
86	0xf8	-8
87	0x9b	-101
88	0xf7	-9
89	0xec	-20
90	0x0f	15
91	0x03	3
92	0x2c	44
93	0xcd	-51
94	0xe2	-30
95	0xea	-22
96	0x34	52
97	0xb7	-73
98	0xbc	-68
99	0xc5	-59
100	0x7f	127
101	0xe7	-25
102	0x39	57
103	0x17	23
104	0xf1	-15
105	0x9a	-102
106	0xc6	-58
107	0xf3	-13
108	0x0d	13
109	0xf3	-13
110	0xc4	-60
111	0x2d	45
112	0xae	-82
113	0x03	3
114	0x1d	29
115	0x39	57
116	0x05	5
117	0x2e	46
118	0xf2	-14
119	0xdb	-37
120	0x02	2
121	0xf5	-11
122	0xfe	-2
123	0xc1	-63
124	0x24	36
125	0xd7	-41
126	0xbc	-68
127	0x10	16
128	0xf4	-12
129	0x2f	47
130	0x02	2
131	0xfe	-2
132	0x03	3
133	0xf7	-9
134	0x06	6
135	0x11	17
136	0xe9	-23
137	0x2a	42
138	0xd3	-45
139	0xd9	-39
140	0xcd	-51
141	0x3b	59
142	0x0a	10
143	0x04	4
144	0x10	16
145	0x98	-104
146	0x01	1
147	0xdc	-36
148	0xe4	-28
149	0x32	50
150	0x2a	42
151	0x18	24
152	0xd3	-45
153	0xef	-17
154	0xe2	-30
155	0xe5	-27
156	0x12	18
157	0xf4	-12
158	0xf9	-7
159	0xd2	-46
160	0xc3	-61
161	0x6c	108
162	0xdf	-33
163	0xf0	-16
164	0xff	-1
165	0xf2	-14
166	0xf2	-14
167	0xff	-1
168	0x33	51
169	0x8f	-113
170	0xe9	-23
171	0xf4	-12
172	0x15	21
173	0xca	-54
174	0x2e	46
175	0xf3	-13
176	0xfb	-5
177	0xde	-34
178	0x02	2
179	0xfb	-5
180	0xc4	-60
181	0x2c	44
182	0xe8	-24
183	0x14	20
184	0x06	6
185	0xd0	-48
186	0xfd	-3
187	0x1d	29
188	0x10	16
189	0xfa	-6
190	0x1a	26
191	0x51	81
192	0xed	-19
193	0x47	71
194	0xa5	-91
195	0x18	24
196	0x33	51
197	0x5b	91
198	0x18	24
199	0x4f	79
200	0x0a	10
201	0x81	-127
202	0xfd	-3
203	0xf5	-11
204	0xff	-1
205	0xfd	-3
206	0x25	37
207	0x2f	47
208	0x1c	28
209	0xf0	-16
210	0xeb	-21
211	0x42	66
212	0x14	20
213	0x04	4
214	0x54	84
215	0xfb	-5
216	0x34	52
217	0x11	17
218	0x0d	13
219	0xb1	-79
220	0x2a	42
221	0x0f	15
222	0x39	57
223	0xd0	-48
224	0x1b	27
225	0x04	4
226	0xe4	-28
227	0x22	34
228	0x85	-123
229	0xc0	-64
230	0x31	49
231	0x12	18
232	0x03	3
233	0xd6	-42
234	0x00	0
235	0xe7	-25
236	0x25	37
237	0x0b	11
238	0x04	4
239	0x41	65
240	0xee	-18
241	0x2e	46
242	0xef	-17
243	0x05	5
244	0x4f	79
245	0xdd	-35
246	0xf6	-10
247	0x10	16
248	0x28	40
249	0x14	20
250	0x1f	31
251	0xfd	-3
252	0x12	18
253	0x29	41
254	0x15	21
255	0xe8	-24

model_1/block_5_depthwise_BN/FusedBatchNormV3;model_1/block_5_depthwise/depthwise;model_1/block_6_expand/Conv2D i1 [1, 3, 3, 96]
0	0xd2	-46
1	0xb8	-72
2	0xf9	-7
3	0x7f	127
4	0x16	22
5	0x4d	77
6	0x4b	75
7	0xc7	-57
8	0xf3	-13
9	0xef	-17
10	0xf0	-16
11	0xfb	-5
12	0xe7	-25
13	0xfe	-2
14	0x25	37
15	0x06	6
16	0xf5	-11
17	0xd6	-42
18	0x1b	27
19	0x14	20
20	0x0f	15
21	0x81	-127
22	0x7f	127
23	0x03	3
24	0xa9	-87
25	0x08	8
26	0x35	53
27	0xe1	-31
28	0x82	-126
29	0x81	-127
30	0x27	39
31	0x1a	26
32	0x09	9
33	0x1d	29
34	0x3f	63
35	0xee	-18
36	0xe0	-32
37	0xf6	-10
38	0x1c	28
39	0xfa	-6
40	0xf3	-13
41	0x1b	27
42	0x96	-106
43	0x4a	74
44	0x19	25
45	0xb4	-76
46	0x24	36
47	0x30	48
48	0xf0	-16
49	0x30	48
50	0xe8	-24
51	0x12	18
52	0x04	4
53	0xf8	-8
54	0x10	16
55	0x32	50
56	0xa3	-93
57	0xcf	-49
58	0xc2	-62
59	0xed	-19
60	0xf5	-11
61	0x02	2
62	0x0a	10
63	0x26	38
64	0x44	68
65	0xe7	-25
66	0x50	80
67	0x0f	15
68	0xf8	-8
69	0x10	16
70	0x15	21
71	0x7f	127
72	0x16	22
73	0x16	22
74	0x17	23
75	0x01	1
76	0xf4	-12
77	0x11	17
78	0x7f	127
79	0xff	-1
80	0xf2	-14
81	0x0d	13
82	0xe4	-28
83	0x15	21
84	0x7f	127
85	0x15	21
86	0xb9	-71
87	0xf1	-15
88	0xff	-1
89	0xdb	-37
90	0xf0	-16
91	0xd5	-43
92	0x01	1
93	0xe5	-27
94	0xf1	-15
95	0x1a	26
96	0x7f	127
97	0x81	-127
98	0x50	80
99	0x6a	106
100	0xd6	-42
101	0x7f	127
102	0x21	33
103	0x8b	-117
104	0x48	72
105	0x06	6
106	0xef	-17
107	0x7f	127
108	0x7f	127
109	0xa1	-95
110	0xf4	-12
111	0x15	21
112	0x07	7
113	0x7f	127
114	0x7f	127
115	0x8d	-115
116	0x7f	127
117	0xad	-83
118	0x50	80
119	0x3f	63
120	0x81	-127
121	0x92	-110
122	0xc2	-62
123	0xdf	-33
124	0xc9	-55
125	0x2f	47
126	0xc5	-59
127	0xef	-17
128	0xa5	-91
129	0x37	55
130	0x81	-127
131	0xad	-83
132	0xd3	-45
133	0xf1	-15
134	0xcd	-51
135	0x3e	62
136	0x00	0
137	0x7f	127
138	0x7f	127
139	0x56	86
140	0xcd	-51
141	0x85	-123
142	0x91	-111
143	0xd0	-48
144	0xf2	-14
145	0x81	-127
146	0x2a	42
147	0x55	85
148	0x48	72
149	0xde	-34
150	0x2d	45
151	0x55	85
152	0xd1	-47
153	0x29	41
154	0xac	-84
155	0x8c	-116
156	0xd3	-45
157	0xd9	-39
158	0xc5	-59
159	0x43	67
160	0x4a	74
161	0xc3	-61
162	0x1f	31
163	0x1f	31
164	0xae	-82
165	0x1f	31
166	0xf1	-15
167	0x5a	90
168	0x75	117
169	0x7f	127
170	0x0a	10
171	0x17	23
172	0x00	0
173	0x3b	59
174	0xe1	-31
175	0x36	54
176	0x41	65
177	0x7f	127
178	0x7f	127
179	0xea	-22
180	0xf7	-9
181	0x4d	77
182	0x97	-105
183	0x7f	127
184	0x88	-120
185	0x9c	-100
186	0x05	5
187	0x81	-127
188	0xa6	-90
189	0x81	-127
190	0xd9	-39
191	0x6a	106
192	0xb7	-73
193	0xf2	-14
194	0x20	32
195	0xae	-82
196	0x0f	15
197	0xeb	-21
198	0x3c	60
199	0xf7	-9
200	0x50	80
201	0xdb	-37
202	0xe3	-29
203	0x15	21
204	0xf2	-14
205	0x00	0
206	0xf7	-9
207	0xf7	-9
208	0xf5	-11
209	0xf0	-16
210	0x08	8
211	0xf8	-8
212	0xe7	-25
213	0x97	-105
214	0x1e	30
215	0xfc	-4
216	0x8c	-116
217	0x5f	95
218	0x07	7
219	0xc9	-55
220	0x74	116
221	0x32	50
222	0xf3	-13
223	0x0a	10
224	0xfd	-3
225	0x13	19
226	0x0f	15
227	0xe5	-27
228	0xf4	-12
229	0x21	33
230	0x12	18
231	0x0b	11
232	0x19	25
233	0x0d	13
234	0x90	-112
235	0x45	69
236	0x14	20
237	0xea	-22
238	0x24	36
239	0x11	17
240	0xf2	-14
241	0x08	8
242	0xf0	-16
243	0x06	6
244	0xf9	-7
245	0xff	-1
246	0xfd	-3
247	0x1a	26
248	0xbb	-69
249	0x06	6
250	0xdd	-35
251	0x32	50
252	0x03	3
253	0x2b	43
254	0x23	35
255	0x00	0

model_1/block_5_expand/Conv2D i1 [96, 1, 1, 16]
0	0x01	1
1	0x4e	78
2	0xfc	-4
3	0x4b	75
4	0x25	37
5	0x18	24
6	0x21	33
7	0x05	5
8	0x2e	46
9	0x1a	26
10	0x95	-107
11	0x3f	63
12	0xf3	-13
13	0x82	-126
14	0x07	7
15	0x81	-127
16	0x0f	15
17	0x04	4
18	0x08	8
19	0xde	-34
20	0x3e	62
21	0xd2	-46
22	0x7f	127
23	0x9e	-98
24	0x0e	14
25	0x5c	92
26	0xfa	-6
27	0xc6	-58
28	0xfc	-4
29	0xda	-38
30	0x31	49
31	0x0a	10
32	0x81	-127
33	0x1e	30
34	0x01	1
35	0xd1	-47
36	0x23	35
37	0x08	8
38	0x28	40
39	0x33	51
40	0xc8	-56
41	0x34	52
42	0x43	67
43	0xeb	-21
44	0xc9	-55
45	0xec	-20
46	0x0e	14
47	0xd0	-48
48	0xfa	-6
49	0x7f	127
50	0x1d	29
51	0x36	54
52	0xa7	-89
53	0x4b	75
54	0x4e	78
55	0x76	118
56	0xde	-34
57	0x4c	76
58	0x92	-110
59	0x0a	10
60	0x2d	45
61	0x9d	-99
62	0x83	-125
63	0xb7	-73
64	0x08	8
65	0xfd	-3
66	0x2b	43
67	0x52	82
68	0xfd	-3
69	0x49	73
70	0xf3	-13
71	0x21	33
72	0x19	25
73	0xeb	-21
74	0xfb	-5
75	0xfb	-5
76	0x1c	28
77	0x05	5
78	0x81	-127
79	0xde	-34
80	0xef	-17
81	0xd7	-41
82	0x41	65
83	0xf5	-11
84	0x06	6
85	0xe9	-23
86	0xed	-19
87	0x0e	14
88	0xc1	-63
89	0x42	66
90	0xe3	-29
91	0x81	-127
92	0xf5	-11
93	0x26	38
94	0xd2	-46
95	0xe6	-26
96	0x0d	13
97	0xfc	-4
98	0x22	34
99	0xf1	-15
100	0x30	48
101	0x39	57
102	0xc2	-62
103	0xae	-82
104	0xf9	-7
105	0x08	8
106	0x40	64
107	0xf2	-14
108	0x7f	127
109	0xe7	-25
110	0xf2	-14
111	0xd6	-42
112	0x1d	29
113	0x04	4
114	0x7f	127
115	0xf5	-11
116	0x09	9
117	0xcc	-52
118	0x17	23
119	0x0d	13
120	0xd9	-39
121	0x1b	27
122	0x9c	-100
123	0xd3	-45
124	0x0c	12
125	0xf4	-12
126	0x30	48
127	0xfc	-4
128	0x1b	27
129	0x19	25
130	0x53	83
131	0x2a	42
132	0xf5	-11
133	0x44	68
134	0x06	6
135	0x3d	61
136	0x37	55
137	0x03	3
138	0x0d	13
139	0x81	-127
140	0xda	-38
141	0x05	5
142	0xab	-85
143	0xb8	-72
144	0x38	56
145	0xa2	-94
146	0x19	25
147	0x41	65
148	0xe5	-27
149	0xee	-18
150	0x1a	26
151	0x32	50
152	0x7f	127
153	0x10	16
154	0x20	32
155	0x08	8
156	0xbc	-68
157	0x06	6
158	0xab	-85
159	0xe7	-25
160	0xdf	-33
161	0xb4	-76
162	0xe2	-30
163	0xe0	-32
164	0x81	-127
165	0xfd	-3
166	0xf9	-7
167	0x3c	60
168	0x3c	60
169	0x49	73
170	0x21	33
171	0xf6	-10
172	0xdb	-37
173	0x48	72
174	0x37	55
175	0xf3	-13
176	0x31	49
177	0xfc	-4
178	0xe1	-31
179	0xa7	-89
180	0xfd	-3
181	0xf8	-8
182	0xaf	-81
183	0x81	-127
184	0xd2	-46
185	0x16	22
186	0xf8	-8
187	0xf6	-10
188	0x25	37
189	0xe6	-26
190	0x20	32
191	0xe2	-30
192	0x0c	12
193	0x1d	29
194	0xf4	-12
195	0xd6	-42
196	0xcb	-53
197	0xc0	-64
198	0xb0	-80
199	0x1c	28
200	0xed	-19
201	0xd6	-42
202	0x10	16
203	0xdd	-35
204	0xfc	-4
205	0x7f	127
206	0x61	97
207	0x55	85
208	0xd0	-48
209	0x98	-104
210	0xd3	-45
211	0x05	5
212	0x18	24
213	0xd4	-44
214	0xfb	-5
215	0xd4	-44
216	0x15	21
217	0xe5	-27
218	0xdc	-36
219	0x00	0
220	0x12	18
221	0x05	5
222	0x7f	127
223	0x22	34
224	0xfe	-2
225	0x9a	-102
226	0x49	73
227	0x2f	47
228	0x2c	44
229	0x07	7
230	0xf5	-11
231	0x7f	127
232	0x14	20
233	0x40	64
234	0x1e	30
235	0xcd	-51
236	0x11	17
237	0x2a	42
238	0xa5	-91
239	0x7d	125
240	0x19	25
241	0xce	-50
242	0x09	9
243	0x4e	78
244	0x10	16
245	0xf8	-8
246	0x68	104
247	0xfd	-3
248	0x16	22
249	0x81	-127
250	0x09	9
251	0xd1	-47
252	0x04	4
253	0xec	-20
254	0x07	7
255	0xda	-38

model_1/block_4_project/Conv2D i1 [16, 1, 1, 96]
0	0xfe	-2
1	0x08	8
2	0xed	-19
3	0x03	3
4	0x3e	62
5	0x4e	78
6	0xdc	-36
7	0xfa	-6
8	0x23	35
9	0x16	22
10	0x0e	14
11	0x14	20
12	0xee	-18
13	0xff	-1
14	0x1a	26
15	0x40	64
16	0x0b	11
17	0xf0	-16
18	0xec	-20
19	0xee	-18
20	0x64	100
21	0xc0	-64
22	0x0e	14
23	0xf5	-11
24	0xe0	-32
25	0xd1	-47
26	0xd6	-42
27	0x9a	-102
28	0x07	7
29	0xfe	-2
30	0x34	52
31	0x38	56
32	0x58	88
33	0xe7	-25
34	0xf2	-14
35	0xf3	-13
36	0xf8	-8
37	0xee	-18
38	0xe9	-23
39	0x15	21
40	0xe5	-27
41	0x07	7
42	0x1b	27
43	0xe1	-31
44	0x0d	13
45	0xd9	-39
46	0xf2	-14
47	0xfd	-3
48	0xff	-1
49	0x17	23
50	0x12	18
51	0x04	4
52	0xeb	-21
53	0xef	-17
54	0xe5	-27
55	0x00	0
56	0x3d	61
57	0x25	37
58	0xe9	-23
59	0xdd	-35
60	0xbe	-66
61	0x0d	13
62	0xf7	-9
63	0xf6	-10
64	0xf8	-8
65	0x00	0
66	0x40	64
67	0x0f	15
68	0xf5	-11
69	0x07	7
70	0x02	2
71	0xe2	-30
72	0xb7	-73
73	0xff	-1
74	0xff	-1
75	0xfe	-2
76	0xfe	-2
77	0x93	-109
78	0x17	23
79	0xe8	-24
80	0x2a	42
81	0xdd	-35
82	0xad	-83
83	0xcf	-49
84	0x16	22
85	0xf7	-9
86	0x01	1
87	0x20	32
88	0xf8	-8
89	0x09	9
90	0x16	22
91	0xd5	-43
92	0x23	35
93	0x27	39
94	0xec	-20
95	0x7f	127
96	0x3d	61
97	0xb1	-79
98	0x18	24
99	0x43	67
100	0x0a	10
101	0xcb	-53
102	0xf5	-11
103	0xd1	-47
104	0xe2	-30
105	0x9f	-97
106	0xf7	-9
107	0x02	2
108	0x21	33
109	0xc8	-56
110	0xdd	-35
111	0xce	-50
112	0xb7	-73
113	0xfa	-6
114	0x0f	15
115	0x15	21
116	0xec	-20
117	0x9c	-100
118	0xda	-38
119	0xfe	-2
120	0x7f	127
121	0xb7	-73
122	0xbd	-67
123	0x23	35
124	0xe6	-26
125	0x3f	63
126	0x03	3
127	0x37	55
128	0x28	40
129	0xef	-17
130	0xe3	-29
131	0x0c	12
132	0xeb	-21
133	0x03	3
134	0x21	33
135	0xe4	-28
136	0xf3	-13
137	0xb3	-77
138	0x35	53
139	0xed	-19
140	0xd0	-48
141	0x08	8
142	0x51	81
143	0xf5	-11
144	0x2d	45
145	0x0e	14
146	0xec	-20
147	0xb6	-74
148	0x48	72
149	0xb0	-80
150	0x46	70
151	0xef	-17
152	0x1d	29
153	0x1c	28
154	0xf8	-8
155	0xa4	-92
156	0x28	40
157	0xba	-70
158	0x1b	27
159	0xd3	-45
160	0x01	1
161	0xc4	-60
162	0x1e	30
163	0x21	33
164	0x00	0
165	0x20	32
166	0xd3	-45
167	0x0d	13
168	0x9f	-97
169	0x16	22
170	0xe7	-25
171	0x12	18
172	0x2c	44
173	0x55	85
174	0x1e	30
175	0xec	-20
176	0x47	71
177	0x03	3
178	0xb9	-71
179	0x1e	30
180	0xb8	-72
181	0x40	64
182	0xf5	-11
183	0x3f	63
184	0xcc	-52
185	0x03	3
186	0x00	0
187	0x04	4
188	0xfb	-5
189	0xde	-34
190	0x28	40
191	0xe4	-28
192	0x0e	14
193	0x0e	14
194	0x08	8
195	0xe2	-30
196	0x10	16
197	0xff	-1
198	0xf3	-13
199	0x14	20
200	0x47	71
201	0x0e	14
202	0x18	24
203	0x51	81
204	0xfd	-3
205	0x01	1
206	0x46	70
207	0x07	7
208	0xf4	-12
209	0xe2	-30
210	0x05	5
211	0x0e	14
212	0xf1	-15
213	0xca	-54
214	0x11	17
215	0xd0	-48
216	0x03	3
217	0xfd	-3
218	0xe0	-32
219	0x0e	14
220	0xfc	-4
221	0x20	32
222	0x69	105
223	0xd2	-46
224	0x01	1
225	0xe6	-26
226	0xf5	-11
227	0x31	49
228	0x26	38
229	0x7f	127
230	0xe4	-28
231	0xe7	-25
232	0x19	25
233	0xf6	-10
234	0xf5	-11
235	0x20	32
236	0xcb	-53
237	0xd0	-48
238	0xb5	-75
239	0x19	25
240	0x22	34
241	0x2a	42
242	0xe1	-31
243	0xe5	-27
244	0x0d	13
245	0x1f	31
246	0xee	-18
247	0xeb	-21
248	0xd8	-40
249	0x05	5
250	0xfc	-4
251	0x2c	44
252	0x05	5
253	0x09	9
254	0x59	89
255	0x50	80

model_1/block_4_depthwise_BN/FusedBatchNormV3;model_1/block_4_depthwise/depthwise;model_1/block_6_expand/Conv2D i1 [1, 3, 3, 96]
0	0xef	-17
1	0x02	2
2	0xeb	-21
3	0x70	112
4	0xed	-19
5	0x18	24
6	0xc1	-63
7	0xc9	-55
8	0x11	17
9	0xfc	-4
10	0x6a	106
11	0xf8	-8
12	0x02	2
13	0xf8	-8
14	0xfb	-5
15	0x36	54
16	0x07	7
17	0x10	16
18	0xe1	-31
19	0x03	3
20	0x4e	78
21	0x02	2
22	0x23	35
23	0xe1	-31
24	0x00	0
25	0x11	17
26	0x2d	45
27	0x2e	46
28	0x13	19
29	0x0d	13
30	0x17	23
31	0x30	48
32	0xfa	-6
33	0x1c	28
34	0x0d	13
35	0xf0	-16
36	0x05	5
37	0x33	51
38	0xbb	-69
39	0xe5	-27
40	0x15	21
41	0x0a	10
42	0x1e	30
43	0x11	17
44	0xab	-85
45	0xc9	-55
46	0x19	25
47	0xfa	-6
48	0xf3	-13
49	0xf0	-16
50	0xfb	-5
51	0xfa	-6
52	0x30	48
53	0x06	6
54	0xf4	-12
55	0x01	1
56	0x00	0
57	0xdf	-33
58	0x1a	26
59	0xe4	-28
60	0x1b	27
61	0xfc	-4
62	0x7f	127
63	0x1c	28
64	0xf5	-11
65	0xf5	-11
66	0x0e	14
67	0xc9	-55
68	0x41	65
69	0x23	35
70	0x08	8
71	0xf6	-10
72	0x4a	74
73	0xde	-34
74	0x4a	74
75	0x04	4
76	0x13	19
77	0x81	-127
78	0x20	32
79	0x43	67
80	0x03	3
81	0x0a	10
82	0x7f	127
83	0xf4	-12
84	0x26	38
85	0x1d	29
86	0xde	-34
87	0xeb	-21
88	0x27	39
89	0xf8	-8
90	0xf0	-16
91	0x54	84
92	0x02	2
93	0x15	21
94	0xff	-1
95	0x0c	12
96	0xcd	-51
97	0x0b	11
98	0xf6	-10
99	0x0c	12
100	0x34	52
101	0xf5	-11
102	0xf6	-10
103	0x81	-127
104	0x26	38
105	0x0e	14
106	0x81	-127
107	0xfb	-5
108	0xf0	-16
109	0xf3	-13
110	0x03	3
111	0x5d	93
112	0x12	18
113	0xe1	-31
114	0xf5	-11
115	0xf1	-15
116	0x4f	79
117	0xa0	-96
118	0x7f	127
119	0x1c	28
120	0xc3	-61
121	0xe1	-31
122	0x97	-105
123	0xf1	-15
124	0x19	25
125	0x23	35
126	0xcf	-49
127	0x11	17
128	0x78	120
129	0x0d	13
130	0xf4	-12
131	0xfe	-2
132	0xe8	-24
133	0x7f	127
134	0xbb	-69
135	0x81	-127
136	0x09	9
137	0xee	-18
138	0xe3	-29
139	0x0e	14
140	0x2f	47
141	0x81	-127
142	0x7f	127
143	0xd2	-46
144	0xb2	-78
145	0x37	55
146	0x30	48
147	0x08	8
148	0x25	37
149	0xc2	-62
150	0x20	32
151	0x37	55
152	0x24	36
153	0x2b	43
154	0xa1	-95
155	0x54	84
156	0x7f	127
157	0x23	35
158	0x04	4
159	0xec	-20
160	0x2c	44
161	0xda	-38
162	0xa5	-91
163	0x00	0
164	0x25	37
165	0xe1	-31
166	0xf2	-14
167	0x2e	46
168	0xce	-50
169	0xcc	-52
170	0x6d	109
171	0xfd	-3
172	0xe3	-29
173	0xc8	-56
174	0xe1	-31
175	0x42	66
176	0xc0	-64
177	0x36	54
178	0xf7	-9
179	0x09	9
180	0xf5	-11
181	0x30	48
182	0x3b	59
183	0xd7	-41
184	0xe6	-26
185	0x34	52
186	0xf3	-13
187	0x4b	75
188	0x81	-127
189	0xe2	-30
190	0x19	25
191	0x81	-127
192	0xff	-1
193	0xfb	-5
194	0xe7	-25
195	0xb4	-76
196	0x09	9
197	0x15	21
198	0x26	38
199	0x13	19
200	0xfe	-2
201	0xff	-1
202	0x03	3
203	0x3d	61
204	0xff	-1
205	0xf4	-12
206	0xf7	-9
207	0x07	7
208	0xf0	-16
209	0x10	16
210	0xf7	-9
211	0x12	18
212	0x08	8
213	0x1b	27
214	0x1a	26
215	0xdf	-33
216	0x00	0
217	0xe2	-30
218	0x0a	10
219	0x0d	13
220	0xfa	-6
221	0x07	7
222	0x2e	46
223	0xae	-82
224	0x2c	44
225	0x12	18
226	0x0c	12
227	0xe8	-24
228	0x0c	12
229	0x05	5
230	0xde	-34
231	0xe9	-23
232	0x08	8
233	0x05	5
234	0xf0	-16
235	0x0a	10
236	0x18	24
237	0xe1	-31
238	0x17	23
239	0x00	0
240	0x04	4
241	0xfb	-5
242	0x04	4
243	0xfd	-3
244	0x05	5
245	0x07	7
246	0xf9	-7
247	0x09	9
248	0xfc	-4
249	0x2c	44
250	0x0c	12
251	0xff	-1
252	0x0b	11
253	0xef	-17
254	0x03	3
255	0xee	-18

model_1/block_4_expand/Conv2D i1 [96, 1, 1, 16]
0	0x2b	43
1	0xf7	-9
2	0x7f	127
3	0x6e	110
4	0x50	80
5	0xbf	-65
6	0x33	51
7	0xde	-34
8	0x7c	124
9	0x0b	11
10	0xac	-84
11	0xaa	-86
12	0x17	23
13	0x49	73
14	0xe4	-28
15	0x8c	-116
16	0x05	5
17	0x61	97
18	0xf2	-14
19	0x09	9
20	0x65	101
21	0x0a	10
22	0x00	0
23	0x03	3
24	0x4f	79
25	0x33	51
26	0xf7	-9
27	0x7f	127
28	0x0a	10
29	0xe3	-29
30	0x7a	122
31	0x86	-122
32	0x1a	26
33	0xd5	-43
34	0x1a	26
35	0xe4	-28
36	0xef	-17
37	0x4e	78
38	0xc5	-59
39	0x39	57
40	0xa9	-87
41	0x9b	-101
42	0xf6	-10
43	0x48	72
44	0x05	5
45	0x81	-127
46	0x41	65
47	0x93	-109
48	0x5b	91
49	0x74	116
50	0x03	3
51	0x27	39
52	0x81	-127
53	0xd9	-39
54	0xcb	-53
55	0xfb	-5
56	0x06	6
57	0x00	0
58	0x6d	109
59	0xb4	-76
60	0xcc	-52
61	0x64	100
62	0xe1	-31
63	0xd2	-46
64	0x05	5
65	0x04	4
66	0x17	23
67	0x1e	30
68	0xe3	-29
69	0x2d	45
70	0xe4	-28
71	0x25	37
72	0xc8	-56
73	0xd7	-41
74	0x12	18
75	0xe8	-24
76	0x03	3
77	0x81	-127
78	0x29	41
79	0xf8	-8
80	0x7f	127
81	0xd6	-42
82	0xe4	-28
83	0xfc	-4
84	0x01	1
85	0x9f	-97
86	0xe0	-32
87	0xf8	-8
88	0xfd	-3
89	0x06	6
90	0x9a	-102
91	0xf6	-10
92	0x09	9
93	0xf4	-12
94	0x0a	10
95	0x1d	29
96	0x8d	-115
97	0xda	-38
98	0xfa	-6
99	0x51	81
100	0xf1	-15
101	0x0d	13
102	0xd4	-44
103	0x36	54
104	0x81	-127
105	0xd7	-41
106	0xf6	-10
107	0x0b	11
108	0x23	35
109	0xfc	-4
110	0xf7	-9
111	0x4d	77
112	0xed	-19
113	0xfb	-5
114	0xc7	-57
115	0x37	55
116	0x25	37
117	0x81	-127
118	0xe7	-25
119	0x23	35
120	0x16	22
121	0xea	-22
122	0xfd	-3
123	0xfd	-3
124	0xf9	-7
125	0x2e	46
126	0xe4	-28
127	0x13	19
128	0x20	32
129	0xcd	-51
130	0xfc	-4
131	0xe4	-28
132	0x1c	28
133	0x18	24
134	0xcb	-53
135	0xcf	-49
136	0xf2	-14
137	0x09	9
138	0xcf	-49
139	0x08	8
140	0x81	-127
141	0xfe	-2
142	0xf6	-10
143	0x0f	15
144	0x11	17
145	0xc4	-60
146	0x6a	106
147	0x7f	127
148	0x22	34
149	0x08	8
150	0xe7	-25
151	0xbb	-69
152	0x72	114
153	0x89	-119
154	0x1d	29
155	0xce	-50
156	0xf2	-14
157	0x34	52
158	0xb4	-76
159	0xff	-1
160	0xa4	-92
161	0x81	-127
162	0x16	22
163	0xdc	-36
164	0x0c	12
165	0x3c	60
166	0xea	-22
167	0x61	97
168	0x40	64
169	0x88	-120
170	0xc1	-63
171	0x07	7
172	0x67	103
173	0xea	-22
174	0xad	-83
175	0x39	57
176	0x23	35
177	0xf0	-16
178	0x81	-127
179	0x26	38
180	0x35	53
181	0x0a	10
182	0xfa	-6
183	0x2a	42
184	0x00	0
185	0xf1	-15
186	0xdd	-35
187	0x03	3
188	0x0f	15
189	0x0a	10
190	0xea	-22
191	0x14	20
192	0x5a	90
193	0xcb	-53
194	0xfe	-2
195	0xe4	-28
196	0x11	17
197	0xd0	-48
198	0xcd	-51
199	0xd3	-45
200	0x16	22
201	0xf5	-11
202	0x81	-127
203	0xea	-22
204	0xc5	-59
205	0xfc	-4
206	0xf1	-15
207	0x4d	77
208	0xe7	-25
209	0xca	-54
210	0x0c	12
211	0xe4	-28
212	0x7d	125
213	0x22	34
214	0x99	-103
215	0x81	-127
216	0x4f	79
217	0xe0	-32
218	0x44	68
219	0x08	8
220	0x26	38
221	0xd3	-45
222	0x13	19
223	0xf0	-16
224	0xbd	-67
225	0x1c	28
226	0xa7	-89
227	0xcd	-51
228	0x4b	75
229	0x81	-127
230	0x37	55
231	0xc4	-60
232	0x30	48
233	0x2b	43
234	0x04	4
235	0x9a	-102
236	0x18	24
237	0x6b	107
238	0xfa	-6
239	0x17	23
240	0x13	19
241	0xfe	-2
242	0x38	56
243	0x1f	31
244	0x31	49
245	0xce	-50
246	0xe5	-27
247	0x03	3
248	0x18	24
249	0xd6	-42
250	0xce	-50
251	0xf2	-14
252	0x81	-127
253	0xd8	-40
254	0xf0	-16
255	0x30	48

model_1/block_3_project/Conv2D i1 [16, 1, 1, 48]
0	0xef	-17
1	0x0c	12
2	0xf2	-14
3	0x0a	10
4	0x16	22
5	0xfc	-4
6	0x01	1
7	0x66	102
8	0xcd	-51
9	0x07	7
10	0x26	38
11	0xfa	-6
12	0x0f	15
13	0xe2	-30
14	0xed	-19
15	0x20	32
16	0x11	17
17	0xee	-18
18	0xfd	-3
19	0x02	2
20	0x45	69
21	0xf7	-9
22	0x09	9
23	0x7f	127
24	0xe7	-25
25	0x4e	78
26	0xfc	-4
27	0xf0	-16
28	0x19	25
29	0xf4	-12
30	0x17	23
31	0xed	-19
32	0xea	-22
33	0x37	55
34	0x20	32
35	0xcc	-52
36	0x10	16
37	0x2e	46
38	0x15	21
39	0x01	1
40	0x92	-110
41	0xec	-20
42	0x15	21
43	0x2e	46
44	0x1d	29
45	0x13	19
46	0x87	-121
47	0xc6	-58
48	0xdc	-36
49	0x01	1
50	0x12	18
51	0x10	16
52	0xd4	-44
53	0x09	9
54	0x14	20
55	0x39	57
56	0xd1	-47
57	0xe2	-30
58	0x0b	11
59	0xd9	-39
60	0xe5	-27
61	0xf4	-12
62	0x03	3
63	0xff	-1
64	0xdd	-35
65	0x73	115
66	0xf6	-10
67	0x18	24
68	0xff	-1
69	0x0d	13
70	0xe2	-30
71	0xf1	-15
72	0x1a	26
73	0xd7	-41
74	0x12	18
75	0x17	23
76	0xdb	-37
77	0xad	-83
78	0xdd	-35
79	0x12	18
80	0xf1	-15
81	0xf8	-8
82	0x21	33
83	0xfb	-5
84	0x01	1
85	0xdc	-36
86	0x03	3
87	0x0c	12
88	0xea	-22
89	0xe3	-29
90	0x7f	127
91	0x06	6
92	0x08	8
93	0x00	0
94	0x1b	27
95	0xfa	-6
96	0xea	-22
97	0xf5	-11
98	0xf3	-13
99	0xe0	-32
100	0x06	6
101	0xc1	-63
102	0x03	3
103	0xe8	-24
104	0x01	1
105	0x02	2
106	0x11	17
107	0x1a	26
108	0x11	17
109	0x11	17
110	0xf2	-14
111	0x0b	11
112	0x02	2
113	0xe6	-26
114	0xeb	-21
115	0xf3	-13
116	0xfc	-4
117	0xfd	-3
118	0xfd	-3
119	0x81	-127
120	0xfe	-2
121	0x45	69
122	0xf9	-7
123	0x07	7
124	0x01	1
125	0xef	-17
126	0xfd	-3
127	0x01	1
128	0xf7	-9
129	0x37	55
130	0x0c	12
131	0xf9	-7
132	0x14	20
133	0x06	6
134	0x17	23
135	0x06	6
136	0xde	-34
137	0x06	6
138	0xeb	-21
139	0xfc	-4
140	0xfc	-4
141	0xfa	-6
142	0x11	17
143	0x01	1
144	0xf7	-9
145	0x1e	30
146	0x00	0
147	0xdf	-33
148	0xfc	-4
149	0x00	0
150	0x00	0
151	0xfc	-4
152	0xef	-17
153	0xfb	-5
154	0x02	2
155	0x22	34
156	0x81	-127
157	0x07	7
158	0xfe	-2
159	0x01	1
160	0x00	0
161	0x03	3
162	0xec	-20
163	0xfc	-4
164	0xdf	-33
165	0x07	7
166	0x04	4
167	0x0d	13
168	0xf8	-8
169	0xf5	-11
170	0x08	8
171	0x19	25
172	0xf9	-7
173	0x12	18
174	0xfb	-5
175	0x19	25
176	0x06	6
177	0xfb	-5
178	0x11	17
179	0x0f	15
180	0xf4	-12
181	0x1b	27
182	0x27	39
183	0x04	4
184	0x06	6
185	0x03	3
186	0x16	22
187	0xe5	-27
188	0x0a	10
189	0xfe	-2
190	0x09	9
191	0x16	22
192	0x1d	29
193	0xe3	-29
194	0x06	6
195	0x10	16
196	0x16	22
197	0x19	25
198	0x1c	28
199	0xe8	-24
200	0xe8	-24
201	0xfd	-3
202	0xf9	-7
203	0xf3	-13
204	0xfc	-4
205	0x14	20
206	0x07	7
207	0x0c	12
208	0x0c	12
209	0xed	-19
210	0xb8	-72
211	0x03	3
212	0xf5	-11
213	0x0f	15
214	0x09	9
215	0x4a	74
216	0x06	6
217	0xe8	-24
218	0x05	5
219	0x2c	44
220	0x0b	11
221	0xb5	-75
222	0x0a	10
223	0x0f	15
224	0x0a	10
225	0xe1	-31
226	0x25	37
227	0x81	-127
228	0x0d	13
229	0x1e	30
230	0x01	1
231	0x1c	28
232	0xf1	-15
233	0x17	23
234	0x0a	10
235	0xe5	-27
236	0xf6	-10
237	0xed	-19
238	0x0e	14
239	0xfa	-6
240	0x16	22
241	0x00	0
242	0xe9	-23
243	0x34	52
244	0x02	2
245	0xfe	-2
246	0x04	4
247	0x1e	30
248	0xfd	-3
249	0xff	-1
250	0x2f	47
251	0x04	4
252	0x08	8
253	0x36	54
254	0xfd	-3
255	0xfe	-2

model_1/block_3_depthwise_BN/FusedBatchNormV3;model_1/block_3_depthwise/depthwise i1 [1, 3, 3, 48]
0	0x45	69
1	0xa2	-94
2	0x63	99
3	0x46	70
4	0x34	52
5	0xde	-34
6	0x6b	107
7	0xbd	-67
8	0x3c	60
9	0xa4	-92
10	0xaf	-81
11	0x32	50
12	0x35	53
13	0xd7	-41
14	0xbb	-69
15	0xa6	-90
16	0x68	104
17	0x4e	78
18	0x33	51
19	0x4e	78
20	0x42	66
21	0xb7	-73
22	0xad	-83
23	0x33	51
24	0xde	-34
25	0xd6	-42
26	0xbe	-66
27	0xbe	-66
28	0xbd	-67
29	0x3e	62
30	0xbf	-65
31	0x8b	-117
32	0xf3	-13
33	0x2a	42
34	0x42	66
35	0x41	65
36	0xc1	-63
37	0x34	52
38	0xce	-50
39	0xea	-22
40	0x33	51
41	0xb5	-75
42	0x3b	59
43	0x40	64
44	0xa4	-92
45	0x0c	12
46	0x4d	77
47	0xdf	-33
48	0x52	82
49	0x9e	-98
50	0x7f	127
51	0x55	85
52	0xb1	-79
53	0xbd	-67
54	0xca	-54
55	0xaa	-86
56	0x62	98
57	0x96	-106
58	0xc2	-62
59	0x4d	77
60	0x4f	79
61	0x92	-110
62	0xa4	-92
63	0x5e	94
64	0xdc	-36
65	0x5e	94
66	0x53	83
67	0x7f	127
68	0x55	85
69	0x8e	-114
70	0x35	53
71	0x48	72
72	0xcb	-53
73	0xb4	-76
74	0xba	-70
75	0xaf	-81
76	0x37	55
77	0x51	81
78	0xe3	-29
79	0x81	-127
80	0xab	-85
81	0x4e	78
82	0x4e	78
83	0x54	84
84	0xaf	-81
85	0x52	82
86	0xad	-83
87	0xf2	-14
88	0x4d	77
89	0xa1	-95
90	0x54	84
91	0x5a	90
92	0xb8	-72
93	0x81	-127
94	0x5e	94
95	0x9d	-99
96	0x23	35
97	0xcf	-49
98	0x48	72
99	0x28	40
100	0x12	18
101	0xd6	-42
102	0xd3	-45
103	0xd7	-41
104	0x2b	43
105	0xde	-34
106	0x06	6
107	0x22	34
108	0x1f	31
109	0xaf	-81
110	0xca	-54
111	0x00	0
112	0xcc	-52
113	0x25	37
114	0x22	34
115	0x46	70
116	0x22	34
117	0xcb	-53
118	0x1e	30
119	0x1b	27
120	0xe4	-28
121	0xd2	-46
122	0xd3	-45
123	0xe9	-23
124	0x22	34
125	0x1f	31
126	0x59	89
127	0xa3	-93
128	0xae	-82
129	0x2c	44
130	0x24	36
131	0x22	34
132	0xe1	-31
133	0x26	38
134	0xdc	-36
135	0xf3	-13
136	0x29	41
137	0xd7	-41
138	0x24	36
139	0x2c	44
140	0xf9	-7
141	0xf7	-9
142	0x25	37
143	0xb6	-74
144	0x5e	94
145	0x92	-110
146	0xd6	-42
147	0x5d	93
148	0x37	55
149	0xae	-82
150	0x7f	127
151	0xa6	-90
152	0x59	89
153	0x8e	-114
154	0xb6	-74
155	0x53	83
156	0x52	82
157	0x94	-108
158	0xf1	-15
159	0x81	-127
160	0x7f	127
161	0x6a	106
162	0x4b	75
163	0xd9	-39
164	0x53	83
165	0x6c	108
166	0x81	-127
167	0x49	73
168	0x48	72
169	0xb6	-74
170	0xa1	-95
171	0x9c	-100
172	0x81	-127
173	0x58	88
174	0xba	-70
175	0xf9	-7
176	0xa7	-89
177	0x48	72
178	0x6b	107
179	0x62	98
180	0xaa	-86
181	0x4e	78
182	0xaf	-81
183	0x58	88
184	0x54	84
185	0x9b	-101
186	0x58	88
187	0x5a	90
188	0xaa	-86
189	0x6b	107
190	0x5f	95
191	0x9f	-97
192	0x7f	127
193	0x81	-127
194	0xc1	-63
195	0x7f	127
196	0x81	-127
197	0x81	-127
198	0xa8	-88
199	0x81	-127
200	0x7f	127
201	0x81	-127
202	0x81	-127
203	0x7f	127
204	0x7f	127
205	0x81	-127
206	0xe8	-24
207	0x62	98
208	0xc0	-64
209	0x7f	127
210	0x7f	127
211	0xcd	-51
212	0x7f	127
213	0x7f	127
214	0x43	67
215	0x7f	127
216	0x7f	127
217	0x81	-127
218	0x81	-127
219	0x81	-127
220	0x36	54
221	0x7f	127
222	0xe2	-30
223	0x11	17
224	0x81	-127
225	0x7f	127
226	0x7f	127
227	0x7f	127
228	0x81	-127
229	0x7f	127
230	0x81	-127
231	0x7f	127
232	0x7f	127
233	0x81	-127
234	0x7f	127
235	0x7f	127
236	0x81	-127
237	0xf5	-11
238	0x7f	127
239	0x81	-127
240	0x41	65
241	0xad	-83
242	0xdd	-35
243	0x44	68
244	0x25	37
245	0xc1	-63
246	0xd2	-46
247	0xc0	-64
248	0x37	55
249	0xd2	-46
250	0xc5	-59
251	0x39	57
252	0x33	51
253	0xcb	-53
254	0xef	-17
255	0x0b	11

model_1/block_3_expand/Conv2D i1 [48, 1, 1, 8]
0	0x81	-127
1	0x02	2
2	0x01	1
3	0x40	64
4	0xe0	-32
5	0x27	39
6	0x17	23
7	0xe1	-31
8	0x19	25
9	0x41	65
10	0x28	40
11	0x0e	14
12	0x0e	14
13	0xe3	-29
14	0x6f	111
15	0x7f	127
16	0xd5	-43
17	0xf8	-8
18	0x01	1
19	0xfc	-4
20	0x81	-127
21	0x02	2
22	0x0b	11
23	0x02	2
24	0x60	96
25	0x03	3
26	0xf2	-14
27	0x81	-127
28	0x81	-127
29	0x0d	13
30	0x26	38
31	0xe5	-27
32	0x81	-127
33	0x2a	42
34	0xf1	-15
35	0xf8	-8
36	0x51	81
37	0xf6	-10
38	0x2f	47
39	0x24	36
40	0x8e	-114
41	0xe9	-23
42	0x21	33
43	0x02	2
44	0x81	-127
45	0x04	4
46	0x13	19
47	0x6f	111
48	0xe4	-28
49	0x81	-127
50	0x24	36
51	0xfa	-6
52	0x25	37
53	0xf2	-14
54	0x05	5
55	0x34	52
56	0xc1	-63
57	0xfb	-5
58	0xfd	-3
59	0x6f	111
60	0x7f	127
61	0xe0	-32
62	0xda	-38
63	0x0b	11
64	0x3b	59
65	0x04	4
66	0xf9	-7
67	0x81	-127
68	0x05	5
69	0xee	-18
70	0xde	-34
71	0xdb	-37
72	0xef	-17
73	0x81	-127
74	0x06	6
75	0xfb	-5
76	0x01	1
77	0x54	84
78	0xcc	-52
79	0x48	72
80	0x8a	-118
81	0x0e	14
82	0x06	6
83	0x1e	30
84	0x81	-127
85	0x40	64
86	0x48	72
87	0xf3	-13
88	0x78	120
89	0x13	19
90	0x2c	44
91	0x0f	15
92	0xce	-50
93	0xd5	-43
94	0xd2	-46
95	0x81	-127
96	0x05	5
97	0x0a	10
98	0x26	38
99	0xff	-1
100	0x00	0
101	0xbd	-67
102	0x7f	127
103	0x38	56
104	0x2f	47
105	0xe8	-24
106	0xf6	-10
107	0x0d	13
108	0x7f	127
109	0x71	113
110	0x78	120
111	0xf6	-10
112	0x7f	127
113	0x3e	62
114	0xee	-18
115	0x23	35
116	0xb2	-78
117	0xe4	-28
118	0xf2	-14
119	0xf5	-11
120	0xdb	-37
121	0x81	-127
122	0x11	17
123	0xd8	-40
124	0x20	32
125	0x03	3
126	0x0f	15
127	0x35	53
128	0xb1	-79
129	0xf0	-16
130	0xff	-1
131	0x17	23
132	0x81	-127
133	0xf8	-8
134	0x01	1
135	0x04	4
136	0xe5	-27
137	0x5a	90
138	0x96	-106
139	0xfe	-2
140	0x0b	11
141	0x81	-127
142	0x52	82
143	0xab	-85
144	0x7f	127
145	0xe0	-32
146	0xc8	-56
147	0x11	17
148	0xba	-70
149	0x20	32
150	0x0d	13
151	0x70	112
152	0x7f	127
153	0xc1	-63
154	0xe4	-28
155	0xf0	-16
156	0x27	39
157	0x0a	10
158	0x08	8
159	0x12	18
160	0x7f	127
161	0x1c	28
162	0xf3	-13
163	0x7b	123
164	0xfe	-2
165	0x19	25
166	0x09	9
167	0xc0	-64
168	0x17	23
169	0x3a	58
170	0xcc	-52
171	0x0f	15
172	0xd0	-48
173	0x72	114
174	0x81	-127
175	0x84	-124
176	0x81	-127
177	0x2d	45
178	0x41	65
179	0xec	-20
180	0xc8	-56
181	0xf5	-11
182	0xc9	-55
183	0xe7	-25
184	0xde	-34
185	0xc3	-61
186	0x01	1
187	0x14	20
188	0x81	-127
189	0x3f	63
190	0x44	68
191	0xeb	-21
192	0x7f	127
193	0xe3	-29
194	0x1a	26
195	0x00	0
196	0x99	-103
197	0x01	1
198	0xf3	-13
199	0x04	4
200	0x1a	26
201	0xed	-19
202	0xf6	-10
203	0xe4	-28
204	0x7f	127
205	0x31	49
206	0x38	56
207	0xdc	-36
208	0xfa	-6
209	0xa9	-87
210	0x08	8
211	0xdd	-35
212	0x0c	12
213	0x81	-127
214	0x55	85
215	0xcb	-53
216	0xf0	-16
217	0x81	-127
218	0x20	32
219	0xf1	-15
220	0xf9	-7
221	0xc9	-55
222	0x23	35
223	0xf7	-9
224	0xa9	-87
225	0x05	5
226	0xea	-22
227	0x15	21
228	0xef	-17
229	0xf8	-8
230	0x7f	127
231	0x54	84
232	0xf5	-11
233	0x27	39
234	0x0a	10
235	0x12	18
236	0xf9	-7
237	0x35	53
238	0x8a	-118
239	0x81	-127
240	0x7f	127
241	0xb5	-75
242	0x13	19
243	0x32	50
244	0x9c	-100
245	0x20	32
246	0xb9	-71
247	0xd9	-39
248	0xf5	-11
249	0xe7	-25
250	0x27	39
251	0xf0	-16
252	0x25	37
253	0x98	-104
254	0x7f	127
255	0x40	64

model_1/block_2_project/Conv2D i1 [8, 1, 1, 48]
0	0xd4	-44
1	0xf9	-7
2	0xdc	-36
3	0x0d	13
4	0x03	3
5	0xef	-17
6	0x02	2
7	0x10	16
8	0xa0	-96
9	0x7f	127
10	0xcf	-49
11	0x70	112
12	0x66	102
13	0x03	3
14	0x41	65
15	0xf8	-8
16	0x00	0
17	0xdb	-37
18	0x04	4
19	0x09	9
20	0xf9	-7
21	0x06	6
22	0xe8	-24
23	0xeb	-21
24	0x13	19
25	0x9b	-101
26	0x05	5
27	0x36	54
28	0xfa	-6
29	0x11	17
30	0x0d	13
31	0xe1	-31
32	0x01	1
33	0xbf	-65
34	0x70	112
35	0x03	3
36	0xee	-18
37	0xf1	-15
38	0x03	3
39	0xf9	-7
40	0x65	101
41	0xff	-1
42	0x15	21
43	0xdf	-33
44	0xe7	-25
45	0x10	16
46	0xe7	-25
47	0xe1	-31
48	0x01	1
49	0x23	35
50	0x70	112
51	0x07	7
52	0xff	-1
53	0xef	-17
54	0x09	9
55	0xb5	-75
56	0x23	35
57	0x00	0
58	0x14	20
59	0x03	3
60	0xf0	-16
61	0x0b	11
62	0xf8	-8
63	0x81	-127
64	0x0b	11
65	0xbe	-66
66	0x0c	12
67	0x01	1
68	0xec	-20
69	0x24	36
70	0x16	22
71	0xe1	-31
72	0xec	-20
73	0xfb	-5
74	0x13	19
75	0x01	1
76	0x12	18
77	0x06	6
78	0x0e	14
79	0x09	9
80	0x01	1
81	0x00	0
82	0x15	21
83	0x19	25
84	0xf0	-16
85	0xe1	-31
86	0x3a	58
87	0xc9	-55
88	0x05	5
89	0x29	41
90	0xfc	-4
91	0x1b	27
92	0xf1	-15
93	0x04	4
94	0x1a	26
95	0xef	-17
96	0xfc	-4
97	0xce	-50
98	0x19	25
99	0xd2	-46
100	0x20	32
101	0x1f	31
102	0xfb	-5
103	0xe8	-24
104	0x09	9
105	0xfe	-2
106	0xf3	-13
107	0x14	20
108	0xf0	-16
109	0x36	54
110	0x00	0
111	0x02	2
112	0xcc	-52
113	0x7f	127
114	0xe4	-28
115	0xd2	-46
116	0xf6	-10
117	0x14	20
118	0xce	-50
119	0xf6	-10
120	0x7b	123
121	0xfd	-3
122	0xfc	-4
123	0xf6	-10
124	0xe7	-25
125	0xf9	-7
126	0x05	5
127	0xcc	-52
128	0xfb	-5
129	0xe6	-26
130	0xff	-1
131	0x0d	13
132	0xf0	-16
133	0xfc	-4
134	0xf4	-12
135	0x09	9
136	0x0c	12
137	0xe2	-30
138	0xf4	-12
139	0xfc	-4
140	0x01	1
141	0x20	32
142	0xe1	-31
143	0xd1	-47
144	0xfc	-4
145	0xac	-84
146	0x03	3
147	0x07	7
148	0x07	7
149	0xf9	-7
150	0xfb	-5
151	0x01	1
152	0xfb	-5
153	0xf1	-15
154	0x11	17
155	0x1a	26
156	0x0e	14
157	0xfb	-5
158	0x30	48
159	0x00	0
160	0xf7	-9
161	0xeb	-21
162	0x06	6
163	0x11	17
164	0xf9	-7
165	0x1a	26
166	0xe7	-25
167	0x07	7
168	0x06	6
169	0x31	49
170	0xfe	-2
171	0x10	16
172	0xfa	-6
173	0x05	5
174	0x7f	127
175	0x03	3
176	0x12	18
177	0x03	3
178	0xfe	-2
179	0xfb	-5
180	0xef	-17
181	0xf9	-7
182	0xfb	-5
183	0x0d	13
184	0xf5	-11
185	0x07	7
186	0x01	1
187	0x11	17
188	0xf6	-10
189	0x06	6
190	0x00	0
191	0x1c	28
192	0x97	-105
193	0x02	2
194	0xed	-19
195	0x01	1
196	0x00	0
197	0xd1	-47
198	0x05	5
199	0x11	17
200	0x1d	29
201	0xe9	-23
202	0x22	34
203	0xf3	-13
204	0xcb	-53
205	0x07	7
206	0xeb	-21
207	0xfe	-2
208	0x03	3
209	0x04	4
210	0x0c	12
211	0x21	33
212	0x08	8
213	0xe5	-27
214	0x04	4
215	0xff	-1
216	0xf6	-10
217	0x34	52
218	0x11	17
219	0x75	117
220	0x05	5
221	0x06	6
222	0xed	-19
223	0xdc	-36
224	0xfd	-3
225	0x81	-127
226	0xeb	-21
227	0x00	0
228	0xf6	-10
229	0xf0	-16
230	0x02	2
231	0x04	4
232	0xcc	-52
233	0xf7	-9
234	0xda	-38
235	0x16	22
236	0xc8	-56
237	0x03	3
238	0x09	9
239	0x02	2
240	0xef	-17
241	0x19	25
242	0x18	24
243	0x0a	10
244	0xdc	-36
245	0x15	21
246	0xfa	-6
247	0x2c	44
248	0x13	19
249	0x10	16
250	0x0b	11
251	0x03	3
252	0x00	0
253	0xde	-34
254	0x0d	13
255	0x1d	29

model_1/block_2_depthwise_BN/FusedBatchNormV3;model_1/block_2_depthwise/depthwise;model_1/block_3_depthwise/depthwise i1 [1, 3, 3, 48]
0	0x05	5
1	0xfc	-4
2	0x14	20
3	0x6a	106
4	0x04	4
5	0x4f	79
6	0xff	-1
7	0x1c	28
8	0x0e	14
9	0x08	8
10	0x09	9
11	0x08	8
12	0xf9	-7
13	0xf7	-9
14	0xd3	-45
15	0x08	8
16	0xfe	-2
17	0x09	9
18	0xea	-22
19	0x8d	-115
20	0xfb	-5
21	0xeb	-21
22	0x7f	127
23	0xf6	-10
24	0xff	-1
25	0x06	6
26	0xfc	-4
27	0x08	8
28	0xfb	-5
29	0x04	4
30	0x0f	15
31	0x62	98
32	0x15	21
33	0x1d	29
34	0x26	38
35	0xe5	-27
36	0x02	2
37	0x22	34
38	0xfd	-3
39	0x02	2
40	0x12	18
41	0xbd	-67
42	0xf9	-7
43	0xf7	-9
44	0x10	16
45	0x02	2
46	0xfa	-6
47	0xf7	-9
48	0x7f	127
49	0x09	9
50	0x0f	15
51	0x81	-127
52	0x1c	28
53	0x53	83
54	0x0a	10
55	0x0b	11
56	0x79	121
57	0x7f	127
58	0x08	8
59	0x2c	44
60	0xcf	-49
61	0xe8	-24
62	0x06	6
63	0x08	8
64	0x7f	127
65	0xc8	-56
66	0xc5	-59
67	0xc9	-55
68	0x9d	-99
69	0x1a	26
70	0x94	-108
71	0x0f	15
72	0x11	17
73	0x46	70
74	0xe2	-30
75	0xae	-82
76	0x17	23
77	0x14	20
78	0x08	8
79	0x86	-122
80	0x05	5
81	0xc4	-60
82	0x7f	127
83	0x0a	10
84	0xd9	-39
85	0xd1	-47
86	0xf9	-7
87	0x75	117
88	0xb2	-78
89	0xa1	-95
90	0xe4	-28
91	0x03	3
92	0xdc	-36
93	0xf9	-7
94	0x81	-127
95	0x18	24
96	0xe0	-32
97	0xfc	-4
98	0x08	8
99	0x0d	13
100	0x00	0
101	0x3e	62
102	0x03	3
103	0x11	17
104	0x1a	26
105	0x08	8
106	0xf1	-15
107	0x20	32
108	0xf2	-14
109	0xfd	-3
110	0x13	19
111	0x03	3
112	0x98	-104
113	0x1d	29
114	0xfd	-3
115	0x4e	78
116	0xe2	-30
117	0xf4	-12
118	0xee	-18
119	0xf9	-7
120	0xfc	-4
121	0xc4	-60
122	0xfd	-3
123	0x1d	29
124	0xf0	-16
125	0x05	5
126	0x03	3
127	0xeb	-21
128	0x08	8
129	0xea	-22
130	0x12	18
131	0xed	-19
132	0x00	0
133	0x2f	47
134	0x2a	42
135	0xf5	-11
136	0x32	50
137	0x24	36
138	0xf1	-15
139	0x0b	11
140	0xd4	-44
141	0x04	4
142	0x00	0
143	0xfb	-5
144	0x7e	126
145	0x06	6
146	0x01	1
147	0x9e	-98
148	0x0e	14
149	0xe4	-28
150	0x24	36
151	0xef	-17
152	0x08	8
153	0x09	9
154	0xf4	-12
155	0x36	54
156	0xfa	-6
157	0xff	-1
158	0x11	17
159	0xdf	-33
160	0xff	-1
161	0xcf	-49
162	0xc6	-58
163	0xa9	-87
164	0x0b	11
165	0xb7	-73
166	0x84	-124
167	0xee	-18
168	0x07	7
169	0x63	99
170	0xf1	-15
171	0x81	-127
172	0xf8	-8
173	0x20	32
174	0x0d	13
175	0x96	-106
176	0x12	18
177	0xcd	-51
178	0xfe	-2
179	0x7f	127
180	0xfe	-2
181	0x3a	58
182	0xd6	-42
183	0x28	40
184	0xc3	-61
185	0x81	-127
186	0x28	40
187	0xa7	-89
188	0xd4	-44
189	0xf3	-13
190	0xf3	-13
191	0xfc	-4
192	0x1a	26
193	0x81	-127
194	0x81	-127
195	0x70	112
196	0x81	-127
197	0x81	-127
198	0x81	-127
199	0x81	-127
200	0x81	-127
201	0x9f	-97
202	0x7f	127
203	0x81	-127
204	0x7f	127
205	0x7f	127
206	0x22	34
207	0x81	-127
208	0xac	-84
209	0x7f	127
210	0x7f	127
211	0x96	-106
212	0x7f	127
213	0x7f	127
214	0x70	112
215	0x7f	127
216	0x7f	127
217	0x81	-127
218	0x81	-127
219	0x1d	29
220	0x81	-127
221	0x81	-127
222	0x5d	93
223	0x7f	127
224	0x81	-127
225	0x7f	127
226	0xe2	-30
227	0xd7	-41
228	0x7f	127
229	0x81	-127
230	0x7f	127
231	0x7f	127
232	0x7f	127
233	0xb0	-80
234	0x7f	127
235	0x7f	127
236	0x7f	127
237	0x89	-119
238	0x68	104
239	0x6b	107
240	0x35	53
241	0x05	5
242	0x30	48
243	0xf2	-14
244	0x06	6
245	0xc2	-62
246	0x2c	44
247	0x12	18
248	0xe7	-25
249	0x0f	15
250	0x96	-106
251	0xf9	-7
252	0x00	0
253	0xd7	-41
254	0x7f	127
255	0x03	3

model_1/block_2_expand/Conv2D i1 [48, 1, 1, 8]
0	0x5e	94
1	0x28	40
2	0x08	8
3	0xe7	-25
4	0x7f	127
5	0x23	35
6	0xc5	-59
7	0xea	-22
8	0xf7	-9
9	0x00	0
10	0x01	1
11	0x7f	127
12	0x0f	15
13	0x00	0
14	0x04	4
15	0x0e	14
16	0x25	37
17	0x81	-127
18	0xf6	-10
19	0x45	69
20	0xf6	-10
21	0xc0	-64
22	0x50	80
23	0x0b	11
24	0x7f	127
25	0xfa	-6
26	0xed	-19
27	0x10	16
28	0xf9	-7
29	0xc4	-60
30	0x24	36
31	0xf3	-13
32	0x0f	15
33	0xcb	-53
34	0x7f	127
35	0xf6	-10
36	0xeb	-21
37	0xcd	-51
38	0x08	8
39	0xa5	-91
40	0x37	55
41	0x14	20
42	0x00	0
43	0xfd	-3
44	0x7f	127
45	0x04	4
46	0xfd	-3
47	0xf8	-8
48	0xfb	-5
49	0x46	70
50	0xfa	-6
51	0x7f	127
52	0x18	24
53	0x41	65
54	0xc5	-59
55	0xc4	-60
56	0xec	-20
57	0x7f	127
58	0xfd	-3
59	0x03	3
60	0x13	19
61	0xef	-17
62	0x0d	13
63	0xfc	-4
64	0x7f	127
65	0x3f	63
66	0xee	-18
67	0x0a	10
68	0xc8	-56
69	0xdd	-35
70	0x0f	15
71	0xd5	-43
72	0x81	-127
73	0x1d	29
74	0x00	0
75	0x1a	26
76	0x38	56
77	0x01	1
78	0xf8	-8
79	0xf5	-11
80	0xb5	-75
81	0xec	-20
82	0x0c	12
83	0x7f	127
84	0x32	50
85	0x34	52
86	0xe3	-29
87	0xef	-17
88	0x81	-127
89	0x0a	10
90	0x09	9
91	0xd5	-43
92	0x1d	29
93	0xfe	-2
94	0xee	-18
95	0xd3	-45
96	0x7f	127
97	0x14	20
98	0xf2	-14
99	0x08	8
100	0xbe	-66
101	0xec	-20
102	0xff	-1
103	0xcc	-52
104	0xe6	-26
105	0x5b	91
106	0x81	-127
107	0x03	3
108	0x0f	15
109	0x53	83
110	0xc5	-59
111	0x40	64
112	0xe1	-31
113	0xd8	-40
114	0xeb	-21
115	0x7f	127
116	0x10	16
117	0x0d	13
118	0xe9	-23
119	0xf5	-11
120	0xf8	-8
121	0x7f	127
122	0x00	0
123	0xfc	-4
124	0x05	5
125	0xee	-18
126	0x0a	10
127	0xc9	-55
128	0x15	21
129	0x81	-127
130	0xe3	-29
131	0xfc	-4
132	0xeb	-21
133	0xa7	-89
134	0x68	104
135	0xd3	-45
136	0x19	25
137	0x7f	127
138	0x04	4
139	0xfc	-4
140	0x07	7
141	0x50	80
142	0xa9	-87
143	0xe8	-24
144	0x09	9
145	0x38	56
146	0x81	-127
147	0xf0	-16
148	0xff	-1
149	0x44	68
150	0xc6	-58
151	0x40	64
152	0xa8	-88
153	0x1a	26
154	0xef	-17
155	0xee	-18
156	0x81	-127
157	0xf8	-8
158	0x18	24
159	0x16	22
160	0x81	-127
161	0xf5	-11
162	0xfd	-3
163	0x08	8
164	0x34	52
165	0xda	-38
166	0x2e	46
167	0xfb	-5
168	0xd0	-48
169	0xf7	-9
170	0xf8	-8
171	0x02	2
172	0x81	-127
173	0xfb	-5
174	0x16	22
175	0x08	8
176	0x81	-127
177	0xbe	-66
178	0xfc	-4
179	0xfb	-5
180	0x5b	91
181	0x03	3
182	0x21	33
183	0x51	81
184	0xf2	-14
185	0xe0	-32
186	0xfb	-5
187	0xfb	-5
188	0xf5	-11
189	0x56	86
190	0x81	-127
191	0xb4	-76
192	0xf9	-7
193	0x24	36
194	0x81	-127
195	0x05	5
196	0x07	7
197	0x33	51
198	0xe9	-23
199	0x53	83
200	0x5c	92
201	0xd1	-47
202	0x10	16
203	0x7f	127
204	0x9d	-99
205	0xf5	-11
206	0x04	4
207	0xcd	-51
208	0x07	7
209	0xe7	-25
210	0xf5	-11
211	0x01	1
212	0xf5	-11
213	0x6f	111
214	0x7f	127
215	0xe7	-25
216	0x68	104
217	0xf6	-10
218	0xea	-22
219	0x04	4
220	0x7f	127
221	0x15	21
222	0x27	39
223	0xfd	-3
224	0xf5	-11
225	0x7f	127
226	0xb5	-75
227	0xfe	-2
228	0x19	25
229	0x50	80
230	0xf6	-10
231	0x78	120
232	0xe0	-32
233	0x1a	26
234	0xf9	-7
235	0xf9	-7
236	0x0c	12
237	0x4e	78
238	0x81	-127
239	0x99	-103
240	0x07	7
241	0xfb	-5
242	0x01	1
243	0x81	-127
244	0xf4	-12
245	0x02	2
246	0xf8	-8
247	0xf0	-16
248	0x97	-105
249	0x25	37
250	0x0e	14
251	0x07	7
252	0x81	-127
253	0x0c	12
254	0x10	16
255	0xe8	-24

model_1/block_1_project/Conv2D i1 [8, 1, 1, 48]
0	0xf5	-11
1	0xfe	-2
2	0x0a	10
3	0x9f	-97
4	0x03	3
5	0x19	25
6	0x07	7
7	0x06	6
8	0x02	2
9	0x06	6
10	0x05	5
11	0xfd	-3
12	0x62	98
13	0x00	0
14	0x05	5
15	0x01	1
16	0x00	0
17	0xf8	-8
18	0xfb	-5
19	0xfe	-2
20	0x49	73
21	0xfb	-5
22	0xfe	-2
23	0x03	3
24	0x1c	28
25	0x21	33
26	0x0b	11
27	0x0c	12
28	0x04	4
29	0x05	5
30	0x00	0
31	0x81	-127
32	0x07	7
33	0x06	6
34	0xff	-1
35	0x02	2
36	0xe3	-29
37	0x07	7
38	0xf1	-15
39	0x21	33
40	0x03	3
41	0xe5	-27
42	0xf9	-7
43	0x05	5
44	0x01	1
45	0xfb	-5
46	0x08	8
47	0x01	1
48	0xde	-34
49	0xfd	-3
50	0x06	6
51	0x01	1
52	0x2d	45
53	0x1a	26
54	0xdd	-35
55	0x49	73
56	0x0d	13
57	0x07	7
58	0xe3	-29
59	0xe6	-26
60	0x09	9
61	0x00	0
62	0x13	19
63	0x23	35
64	0x00	0
65	0x30	48
66	0x0f	15
67	0xcf	-49
68	0xff	-1
69	0x11	17
70	0x7f	127
71	0x17	23
72	0xdf	-33
73	0x01	1
74	0x36	54
75	0x0b	11
76	0x10	16
77	0xff	-1
78	0x10	16
79	0xf4	-12
80	0x0d	13
81	0xf8	-8
82	0xf4	-12
83	0xeb	-21
84	0x10	16
85	0xcd	-51
86	0x09	9
87	0x02	2
88	0xff	-1
89	0xf7	-9
90	0xa4	-92
91	0xfc	-4
92	0xd9	-39
93	0x07	7
94	0xc6	-58
95	0x9c	-100
96	0xc5	-59
97	0x14	20
98	0x00	0
99	0x09	9
100	0x2a	42
101	0xf1	-15
102	0x1d	29
103	0x15	21
104	0xee	-18
105	0x34	52
106	0x0b	11
107	0x02	2
108	0x06	6
109	0x00	0
110	0x07	7
111	0x3b	59
112	0x00	0
113	0x0a	10
114	0x81	-127
115	0x19	25
116	0x01	1
117	0x10	16
118	0x06	6
119	0xed	-19
120	0xe1	-31
121	0x0e	14
122	0x23	35
123	0x01	1
124	0x00	0
125	0x1c	28
126	0x19	25
127	0x03	3
128	0x06	6
129	0xfb	-5
130	0xf7	-9
131	0xf9	-7
132	0x0d	13
133	0x01	1
134	0x08	8
135	0x03	3
136	0x2e	46
137	0xfa	-6
138	0xe1	-31
139	0x02	2
140	0x18	24
141	0xcd	-51
142	0x19	25
143	0x18	24
144	0xfe	-2
145	0x02	2
146	0x00	0
147	0x06	6
148	0xfa	-6
149	0x19	25
150	0x00	0
151	0xf8	-8
152	0x40	64
153	0x11	17
154	0xfa	-6
155	0x00	0
156	0x18	24
157	0x00	0
158	0xe0	-32
159	0xfa	-6
160	0x00	0
161	0xfd	-3
162	0xf8	-8
163	0x03	3
164	0x02	2
165	0xfd	-3
166	0x03	3
167	0xed	-19
168	0xf6	-10
169	0xfc	-4
170	0xf5	-11
171	0xfb	-5
172	0xfb	-5
173	0xfb	-5
174	0x01	1
175	0xfb	-5
176	0xd2	-46
177	0x22	34
178	0xcd	-51
179	0x04	4
180	0x05	5
181	0x01	1
182	0x03	3
183	0x81	-127
184	0x01	1
185	0x02	2
186	0x01	1
187	0xce	-50
188	0x00	0
189	0x00	0
190	0x01	1
191	0x07	7
192	0xfe	-2
193	0xfc	-4
194	0x53	83
195	0x1d	29
196	0x02	2
197	0xf1	-15
198	0xfd	-3
199	0xfd	-3
200	0x02	2
201	0xfb	-5
202	0x03	3
203	0xfd	-3
204	0xb0	-80
205	0x00	0
206	0xf7	-9
207	0x08	8
208	0x00	0
209	0x06	6
210	0x09	9
211	0xfc	-4
212	0x4c	76
213	0xfe	-2
214	0x00	0
215	0xf9	-7
216	0xf0	-16
217	0x26	38
218	0x00	0
219	0x2b	43
220	0xf6	-10
221	0xf9	-7
222	0x06	6
223	0x6c	108
224	0x01	1
225	0x03	3
226	0xff	-1
227	0x04	4
228	0x11	17
229	0xf1	-15
230	0xf5	-11
231	0xec	-20
232	0xfa	-6
233	0x81	-127
234	0x00	0
235	0xfb	-5
236	0xfe	-2
237	0xfb	-5
238	0x04	4
239	0x01	1
240	0xf7	-9
241	0x2b	43
242	0x05	5
243	0xfa	-6
244	0x03	3
245	0x31	49
246	0x1b	27
247	0x08	8
248	0xf1	-15
249	0x1b	27
250	0x07	7
251	0x38	56
252	0x16	22
253	0x00	0
254	0x81	-127
255	0xfa	-6

model_1/block_1_depthwise_BN/FusedBatchNormV3;model_1/block_1_depthwise/depthwise;model_1/block_3_depthwise/depthwise i1 [1, 3, 3, 48]
0	0xd4	-44
1	0xe8	-24
2	0xfa	-6
3	0xef	-17
4	0x08	8
5	0xd8	-40
6	0xb3	-77
7	0xb9	-71
8	0xe7	-25
9	0xcc	-52
10	0x0b	11
11	0x43	67
12	0x23	35
13	0xb9	-71
14	0x74	116
15	0xd4	-44
16	0x8f	-113
17	0xad	-83
18	0x27	39
19	0xf9	-7
20	0x00	0
21	0xbd	-67
22	0x90	-112
23	0xb0	-80
24	0xdd	-35
25	0x87	-121
26	0xc4	-60
27	0xea	-22
28	0x48	72
29	0x0e	14
30	0x5f	95
31	0x18	24
32	0x81	-127
33	0xa3	-93
34	0xfc	-4
35	0x39	57
36	0x12	18
37	0x30	48
38	0x81	-127
39	0x51	81
40	0xb2	-78
41	0xf2	-14
42	0x6b	107
43	0x90	-112
44	0xfd	-3
45	0xdb	-37
46	0xa9	-87
47	0x6c	108
48	0x4c	76
49	0x09	9
50	0xe4	-28
51	0xe2	-30
52	0x3a	58
53	0x81	-127
54	0x81	-127
55	0xae	-82
56	0x3c	60
57	0xb4	-76
58	0x8c	-116
59	0x6c	108
60	0x26	38
61	0xae	-82
62	0x00	0
63	0x3e	62
64	0xcc	-52
65	0x92	-110
66	0x3b	59
67	0x06	6
68	0x0c	12
69	0x93	-109
70	0x81	-127
71	0xba	-70
72	0xfc	-4
73	0x81	-127
74	0x8a	-118
75	0xd7	-41
76	0xcc	-52
77	0x16	22
78	0xc8	-56
79	0x35	53
80	0x1c	28
81	0x81	-127
82	0x42	66
83	0x53	83
84	0x0c	12
85	0x48	72
86	0xa3	-93
87	0x7f	127
88	0x81	-127
89	0x07	7
90	0x7d	125
91	0x81	-127
92	0x03	3
93	0xe7	-25
94	0x81	-127
95	0x60	96
96	0xe0	-32
97	0x2c	44
98	0x07	7
99	0xfb	-5
100	0xbe	-66
101	0x94	-108
102	0xc6	-58
103	0xee	-18
104	0x57	87
105	0xf8	-8
106	0x81	-127
107	0x27	39
108	0x09	9
109	0xb9	-71
110	0x9b	-101
111	0xf4	-12
112	0x81	-127
113	0xe7	-25
114	0x1a	26
115	0x0d	13
116	0xf1	-15
117	0xb6	-74
118	0xdb	-37
119	0xe8	-24
120	0xf6	-10
121	0xe1	-31
122	0xc5	-59
123	0xf4	-12
124	0xf6	-10
125	0x12	18
126	0xe9	-23
127	0x09	9
128	0x6b	107
129	0xa9	-87
130	0x47	71
131	0x1e	30
132	0x0e	14
133	0x24	36
134	0xfc	-4
135	0x11	17
136	0xb0	-80
137	0x05	5
138	0x05	5
139	0xb1	-79
140	0xf0	-16
141	0x03	3
142	0xca	-54
143	0x0f	15
144	0xa7	-89
145	0x81	-127
146	0xd4	-44
147	0xd6	-42
148	0xf5	-11
149	0x35	53
150	0x62	98
151	0x95	-107
152	0xe7	-25
153	0x95	-107
154	0xec	-20
155	0x6d	109
156	0x5a	90
157	0xc0	-64
158	0x1b	27
159	0x9c	-100
160	0x87	-121
161	0xa4	-92
162	0x59	89
163	0xb4	-76
164	0x2a	42
165	0xad	-83
166	0x97	-105
167	0x81	-127
168	0x2a	42
169	0x8d	-115
170	0xb2	-78
171	0xdb	-37
172	0x7f	127
173	0xc4	-60
174	0x7f	127
175	0x53	83
176	0xd7	-41
177	0xab	-85
178	0xf3	-13
179	0x56	86
180	0xdd	-35
181	0xb4	-76
182	0x92	-110
183	0x5b	91
184	0x2b	43
185	0x3b	59
186	0x67	103
187	0x8f	-113
188	0xa7	-89
189	0x8b	-117
190	0x52	82
191	0x77	119
192	0x7f	127
193	0xad	-83
194	0x81	-127
195	0x81	-127
196	0x7f	127
197	0x27	39
198	0x5d	93
199	0x81	-127
200	0x64	100
201	0x81	-127
202	0x91	-111
203	0x7f	127
204	0x7f	127
205	0xf2	-14
206	0xfa	-6
207	0x7f	127
208	0xc4	-60
209	0x81	-127
210	0x7f	127
211	0x81	-127
212	0x7f	127
213	0x81	-127
214	0x86	-122
215	0x89	-119
216	0x7f	127
217	0x9d	-99
218	0x81	-127
219	0x81	-127
220	0x8a	-118
221	0x81	-127
222	0xb8	-72
223	0x7f	127
224	0x1d	29
225	0x90	-112
226	0x7f	127
227	0x7f	127
228	0xbb	-69
229	0x81	-127
230	0x9d	-99
231	0x5b	91
232	0x3e	62
233	0x7f	127
234	0x7f	127
235	0x8a	-118
236	0x92	-110
237	0x81	-127
238	0x7d	125
239	0x7f	127
240	0xc9	-55
241	0x1f	31
242	0xc3	-61
243	0xac	-84
244	0x86	-122
245	0xe8	-24
246	0x1f	31
247	0xd9	-39
248	0x7f	127
249	0xea	-22
250	0xb5	-75
251	0x23	35
252	0x37	55
253	0xba	-70
254	0xe6	-26
255	0xd2	-46
